{"format": "layers-model", "generatedBy": "keras v2.4.0", "convertedBy": "TensorFlow.js Converter v2.4.0", "modelTopology": {"keras_version": "2.4.0", "backend": "tensorflow", "model_config": {"class_name": "Functional", "config": {"name": "model", "layers": [{"class_name": "InputLayer", "config": {"batch_input_shape": [null, 96, 96, 3], "dtype": "float32", "sparse": false, "ragged": false, "name": "input_1"}, "name": "input_1", "inbound_nodes": []}, {"class_name": "ZeroPadding2D", "config": {"name": "conv1_pad", "trainable": true, "dtype": "float32", "padding": [[3, 3], [3, 3]], "data_format": "channels_last"}, "name": "conv1_pad", "inbound_nodes": [[["input_1", 0, 0, {}]]]}, {"class_name": "Conv2D", "config": {"name": "conv1_conv", "trainable": true, "dtype": "float32", "filters": 64, "kernel_size": [7, 7], "strides": [2, 2], "padding": "valid", "data_format": "channels_last", "dilation_rate": [1, 1], "groups": 1, "activation": "linear", "use_bias": true, "kernel_initializer": {"class_name": "GlorotUniform", "config": {"seed": null}}, "bias_initializer": {"class_name": "Zeros", "config": {}}, "kernel_regularizer": null, "bias_regularizer": null, "activity_regularizer": null, "kernel_constraint": null, "bias_constraint": null}, "name": "conv1_conv", "inbound_nodes": [[["conv1_pad", 0, 0, {}]]]}, {"class_name": "BatchNormalization", "config": {"name": "conv1_bn", "trainable": true, "dtype": "float32", "axis": [3], "momentum": 0.99, "epsilon": 1.001e-05, "center": true, "scale": true, "beta_initializer": {"class_name": "Zeros", "config": {}}, "gamma_initializer": {"class_name": "Ones", "config": {}}, "moving_mean_initializer": {"class_name": "Zeros", "config": {}}, "moving_variance_initializer": {"class_name": "Ones", "config": {}}, "beta_regularizer": null, "gamma_regularizer": null, "beta_constraint": null, "gamma_constraint": null}, "name": "conv1_bn", "inbound_nodes": [[["conv1_conv", 0, 0, {}]]]}, {"class_name": "Activation", "config": {"name": "conv1_relu", "trainable": true, "dtype": "float32", "activation": "relu"}, "name": "conv1_relu", "inbound_nodes": [[["conv1_bn", 0, 0, {}]]]}, {"class_name": "ZeroPadding2D", "config": {"name": "pool1_pad", "trainable": true, "dtype": "float32", "padding": [[1, 1], [1, 1]], "data_format": "channels_last"}, "name": "pool1_pad", "inbound_nodes": [[["conv1_relu", 0, 0, {}]]]}, {"class_name": "MaxPooling2D", "config": {"name": "pool1_pool", "trainable": true, "dtype": "float32", "pool_size": [3, 3], "padding": "valid", "strides": [2, 2], "data_format": "channels_last"}, "name": "pool1_pool", "inbound_nodes": [[["pool1_pad", 0, 0, {}]]]}, {"class_name": "Conv2D", "config": {"name": "conv2_block1_1_conv", "trainable": true, "dtype": "float32", "filters": 64, "kernel_size": [1, 1], "strides": [1, 1], "padding": "valid", "data_format": "channels_last", "dilation_rate": [1, 1], "groups": 1, "activation": "linear", "use_bias": true, "kernel_initializer": {"class_name": "GlorotUniform", "config": {"seed": null}}, "bias_initializer": {"class_name": "Zeros", "config": {}}, "kernel_regularizer": null, "bias_regularizer": null, "activity_regularizer": null, "kernel_constraint": null, "bias_constraint": null}, "name": "conv2_block1_1_conv", "inbound_nodes": [[["pool1_pool", 0, 0, {}]]]}, {"class_name": "BatchNormalization", "config": {"name": "conv2_block1_1_bn", "trainable": true, "dtype": "float32", "axis": [3], "momentum": 0.99, "epsilon": 1.001e-05, "center": true, "scale": true, "beta_initializer": {"class_name": "Zeros", "config": {}}, "gamma_initializer": {"class_name": "Ones", "config": {}}, "moving_mean_initializer": {"class_name": "Zeros", "config": {}}, "moving_variance_initializer": {"class_name": "Ones", "config": {}}, "beta_regularizer": null, "gamma_regularizer": null, "beta_constraint": null, "gamma_constraint": null}, "name": "conv2_block1_1_bn", "inbound_nodes": [[["conv2_block1_1_conv", 0, 0, {}]]]}, {"class_name": "Activation", "config": {"name": "conv2_block1_1_relu", "trainable": true, "dtype": "float32", "activation": "relu"}, "name": "conv2_block1_1_relu", "inbound_nodes": [[["conv2_block1_1_bn", 0, 0, {}]]]}, {"class_name": "Conv2D", "config": {"name": "conv2_block1_2_conv", "trainable": true, "dtype": "float32", "filters": 64, "kernel_size": [3, 3], "strides": [1, 1], "padding": "same", "data_format": "channels_last", "dilation_rate": [1, 1], "groups": 1, "activation": "linear", "use_bias": true, "kernel_initializer": {"class_name": "GlorotUniform", "config": {"seed": null}}, "bias_initializer": {"class_name": "Zeros", "config": {}}, "kernel_regularizer": null, "bias_regularizer": null, "activity_regularizer": null, "kernel_constraint": null, "bias_constraint": null}, "name": "conv2_block1_2_conv", "inbound_nodes": [[["conv2_block1_1_relu", 0, 0, {}]]]}, {"class_name": "BatchNormalization", "config": {"name": "conv2_block1_2_bn", "trainable": true, "dtype": "float32", "axis": [3], "momentum": 0.99, "epsilon": 1.001e-05, "center": true, "scale": true, "beta_initializer": {"class_name": "Zeros", "config": {}}, "gamma_initializer": {"class_name": "Ones", "config": {}}, "moving_mean_initializer": {"class_name": "Zeros", "config": {}}, "moving_variance_initializer": {"class_name": "Ones", "config": {}}, "beta_regularizer": null, "gamma_regularizer": null, "beta_constraint": null, "gamma_constraint": null}, "name": "conv2_block1_2_bn", "inbound_nodes": [[["conv2_block1_2_conv", 0, 0, {}]]]}, {"class_name": "Activation", "config": {"name": "conv2_block1_2_relu", "trainable": true, "dtype": "float32", "activation": "relu"}, "name": "conv2_block1_2_relu", "inbound_nodes": [[["conv2_block1_2_bn", 0, 0, {}]]]}, {"class_name": "Conv2D", "config": {"name": "conv2_block1_0_conv", "trainable": true, "dtype": "float32", "filters": 256, "kernel_size": [1, 1], "strides": [1, 1], "padding": "valid", "data_format": "channels_last", "dilation_rate": [1, 1], "groups": 1, "activation": "linear", "use_bias": true, "kernel_initializer": {"class_name": "GlorotUniform", "config": {"seed": null}}, "bias_initializer": {"class_name": "Zeros", "config": {}}, "kernel_regularizer": null, "bias_regularizer": null, "activity_regularizer": null, "kernel_constraint": null, "bias_constraint": null}, "name": "conv2_block1_0_conv", "inbound_nodes": [[["pool1_pool", 0, 0, {}]]]}, {"class_name": "Conv2D", "config": {"name": "conv2_block1_3_conv", "trainable": true, "dtype": "float32", "filters": 256, "kernel_size": [1, 1], "strides": [1, 1], "padding": "valid", "data_format": "channels_last", "dilation_rate": [1, 1], "groups": 1, "activation": "linear", "use_bias": true, "kernel_initializer": {"class_name": "GlorotUniform", "config": {"seed": null}}, "bias_initializer": {"class_name": "Zeros", "config": {}}, "kernel_regularizer": null, "bias_regularizer": null, "activity_regularizer": null, "kernel_constraint": null, "bias_constraint": null}, "name": "conv2_block1_3_conv", "inbound_nodes": [[["conv2_block1_2_relu", 0, 0, {}]]]}, {"class_name": "BatchNormalization", "config": {"name": "conv2_block1_0_bn", "trainable": true, "dtype": "float32", "axis": [3], "momentum": 0.99, "epsilon": 1.001e-05, "center": true, "scale": true, "beta_initializer": {"class_name": "Zeros", "config": {}}, "gamma_initializer": {"class_name": "Ones", "config": {}}, "moving_mean_initializer": {"class_name": "Zeros", "config": {}}, "moving_variance_initializer": {"class_name": "Ones", "config": {}}, "beta_regularizer": null, "gamma_regularizer": null, "beta_constraint": null, "gamma_constraint": null}, "name": "conv2_block1_0_bn", "inbound_nodes": [[["conv2_block1_0_conv", 0, 0, {}]]]}, {"class_name": "BatchNormalization", "config": {"name": "conv2_block1_3_bn", "trainable": true, "dtype": "float32", "axis": [3], "momentum": 0.99, "epsilon": 1.001e-05, "center": true, "scale": true, "beta_initializer": {"class_name": "Zeros", "config": {}}, "gamma_initializer": {"class_name": "Ones", "config": {}}, "moving_mean_initializer": {"class_name": "Zeros", "config": {}}, "moving_variance_initializer": {"class_name": "Ones", "config": {}}, "beta_regularizer": null, "gamma_regularizer": null, "beta_constraint": null, "gamma_constraint": null}, "name": "conv2_block1_3_bn", "inbound_nodes": [[["conv2_block1_3_conv", 0, 0, {}]]]}, {"class_name": "Add", "config": {"name": "conv2_block1_add", "trainable": true, "dtype": "float32"}, "name": "conv2_block1_add", "inbound_nodes": [[["conv2_block1_0_bn", 0, 0, {}], ["conv2_block1_3_bn", 0, 0, {}]]]}, {"class_name": "Activation", "config": {"name": "conv2_block1_out", "trainable": true, "dtype": "float32", "activation": "relu"}, "name": "conv2_block1_out", "inbound_nodes": [[["conv2_block1_add", 0, 0, {}]]]}, {"class_name": "Conv2D", "config": {"name": "conv2_block2_1_conv", "trainable": true, "dtype": "float32", "filters": 64, "kernel_size": [1, 1], "strides": [1, 1], "padding": "valid", "data_format": "channels_last", "dilation_rate": [1, 1], "groups": 1, "activation": "linear", "use_bias": true, "kernel_initializer": {"class_name": "GlorotUniform", "config": {"seed": null}}, "bias_initializer": {"class_name": "Zeros", "config": {}}, "kernel_regularizer": null, "bias_regularizer": null, "activity_regularizer": null, "kernel_constraint": null, "bias_constraint": null}, "name": "conv2_block2_1_conv", "inbound_nodes": [[["conv2_block1_out", 0, 0, {}]]]}, {"class_name": "BatchNormalization", "config": {"name": "conv2_block2_1_bn", "trainable": true, "dtype": "float32", "axis": [3], "momentum": 0.99, "epsilon": 1.001e-05, "center": true, "scale": true, "beta_initializer": {"class_name": "Zeros", "config": {}}, "gamma_initializer": {"class_name": "Ones", "config": {}}, "moving_mean_initializer": {"class_name": "Zeros", "config": {}}, "moving_variance_initializer": {"class_name": "Ones", "config": {}}, "beta_regularizer": null, "gamma_regularizer": null, "beta_constraint": null, "gamma_constraint": null}, "name": "conv2_block2_1_bn", "inbound_nodes": [[["conv2_block2_1_conv", 0, 0, {}]]]}, {"class_name": "Activation", "config": {"name": "conv2_block2_1_relu", "trainable": true, "dtype": "float32", "activation": "relu"}, "name": "conv2_block2_1_relu", "inbound_nodes": [[["conv2_block2_1_bn", 0, 0, {}]]]}, {"class_name": "Conv2D", "config": {"name": "conv2_block2_2_conv", "trainable": true, "dtype": "float32", "filters": 64, "kernel_size": [3, 3], "strides": [1, 1], "padding": "same", "data_format": "channels_last", "dilation_rate": [1, 1], "groups": 1, "activation": "linear", "use_bias": true, "kernel_initializer": {"class_name": "GlorotUniform", "config": {"seed": null}}, "bias_initializer": {"class_name": "Zeros", "config": {}}, "kernel_regularizer": null, "bias_regularizer": null, "activity_regularizer": null, "kernel_constraint": null, "bias_constraint": null}, "name": "conv2_block2_2_conv", "inbound_nodes": [[["conv2_block2_1_relu", 0, 0, {}]]]}, {"class_name": "BatchNormalization", "config": {"name": "conv2_block2_2_bn", "trainable": true, "dtype": "float32", "axis": [3], "momentum": 0.99, "epsilon": 1.001e-05, "center": true, "scale": true, "beta_initializer": {"class_name": "Zeros", "config": {}}, "gamma_initializer": {"class_name": "Ones", "config": {}}, "moving_mean_initializer": {"class_name": "Zeros", "config": {}}, "moving_variance_initializer": {"class_name": "Ones", "config": {}}, "beta_regularizer": null, "gamma_regularizer": null, "beta_constraint": null, "gamma_constraint": null}, "name": "conv2_block2_2_bn", "inbound_nodes": [[["conv2_block2_2_conv", 0, 0, {}]]]}, {"class_name": "Activation", "config": {"name": "conv2_block2_2_relu", "trainable": true, "dtype": "float32", "activation": "relu"}, "name": "conv2_block2_2_relu", "inbound_nodes": [[["conv2_block2_2_bn", 0, 0, {}]]]}, {"class_name": "Conv2D", "config": {"name": "conv2_block2_3_conv", "trainable": true, "dtype": "float32", "filters": 256, "kernel_size": [1, 1], "strides": [1, 1], "padding": "valid", "data_format": "channels_last", "dilation_rate": [1, 1], "groups": 1, "activation": "linear", "use_bias": true, "kernel_initializer": {"class_name": "GlorotUniform", "config": {"seed": null}}, "bias_initializer": {"class_name": "Zeros", "config": {}}, "kernel_regularizer": null, "bias_regularizer": null, "activity_regularizer": null, "kernel_constraint": null, "bias_constraint": null}, "name": "conv2_block2_3_conv", "inbound_nodes": [[["conv2_block2_2_relu", 0, 0, {}]]]}, {"class_name": "BatchNormalization", "config": {"name": "conv2_block2_3_bn", "trainable": true, "dtype": "float32", "axis": [3], "momentum": 0.99, "epsilon": 1.001e-05, "center": true, "scale": true, "beta_initializer": {"class_name": "Zeros", "config": {}}, "gamma_initializer": {"class_name": "Ones", "config": {}}, "moving_mean_initializer": {"class_name": "Zeros", "config": {}}, "moving_variance_initializer": {"class_name": "Ones", "config": {}}, "beta_regularizer": null, "gamma_regularizer": null, "beta_constraint": null, "gamma_constraint": null}, "name": "conv2_block2_3_bn", "inbound_nodes": [[["conv2_block2_3_conv", 0, 0, {}]]]}, {"class_name": "Add", "config": {"name": "conv2_block2_add", "trainable": true, "dtype": "float32"}, "name": "conv2_block2_add", "inbound_nodes": [[["conv2_block1_out", 0, 0, {}], ["conv2_block2_3_bn", 0, 0, {}]]]}, {"class_name": "Activation", "config": {"name": "conv2_block2_out", "trainable": true, "dtype": "float32", "activation": "relu"}, "name": "conv2_block2_out", "inbound_nodes": [[["conv2_block2_add", 0, 0, {}]]]}, {"class_name": "Conv2D", "config": {"name": "conv2_block3_1_conv", "trainable": true, "dtype": "float32", "filters": 64, "kernel_size": [1, 1], "strides": [1, 1], "padding": "valid", "data_format": "channels_last", "dilation_rate": [1, 1], "groups": 1, "activation": "linear", "use_bias": true, "kernel_initializer": {"class_name": "GlorotUniform", "config": {"seed": null}}, "bias_initializer": {"class_name": "Zeros", "config": {}}, "kernel_regularizer": null, "bias_regularizer": null, "activity_regularizer": null, "kernel_constraint": null, "bias_constraint": null}, "name": "conv2_block3_1_conv", "inbound_nodes": [[["conv2_block2_out", 0, 0, {}]]]}, {"class_name": "BatchNormalization", "config": {"name": "conv2_block3_1_bn", "trainable": true, "dtype": "float32", "axis": [3], "momentum": 0.99, "epsilon": 1.001e-05, "center": true, "scale": true, "beta_initializer": {"class_name": "Zeros", "config": {}}, "gamma_initializer": {"class_name": "Ones", "config": {}}, "moving_mean_initializer": {"class_name": "Zeros", "config": {}}, "moving_variance_initializer": {"class_name": "Ones", "config": {}}, "beta_regularizer": null, "gamma_regularizer": null, "beta_constraint": null, "gamma_constraint": null}, "name": "conv2_block3_1_bn", "inbound_nodes": [[["conv2_block3_1_conv", 0, 0, {}]]]}, {"class_name": "Activation", "config": {"name": "conv2_block3_1_relu", "trainable": true, "dtype": "float32", "activation": "relu"}, "name": "conv2_block3_1_relu", "inbound_nodes": [[["conv2_block3_1_bn", 0, 0, {}]]]}, {"class_name": "Conv2D", "config": {"name": "conv2_block3_2_conv", "trainable": true, "dtype": "float32", "filters": 64, "kernel_size": [3, 3], "strides": [1, 1], "padding": "same", "data_format": "channels_last", "dilation_rate": [1, 1], "groups": 1, "activation": "linear", "use_bias": true, "kernel_initializer": {"class_name": "GlorotUniform", "config": {"seed": null}}, "bias_initializer": {"class_name": "Zeros", "config": {}}, "kernel_regularizer": null, "bias_regularizer": null, "activity_regularizer": null, "kernel_constraint": null, "bias_constraint": null}, "name": "conv2_block3_2_conv", "inbound_nodes": [[["conv2_block3_1_relu", 0, 0, {}]]]}, {"class_name": "BatchNormalization", "config": {"name": "conv2_block3_2_bn", "trainable": true, "dtype": "float32", "axis": [3], "momentum": 0.99, "epsilon": 1.001e-05, "center": true, "scale": true, "beta_initializer": {"class_name": "Zeros", "config": {}}, "gamma_initializer": {"class_name": "Ones", "config": {}}, "moving_mean_initializer": {"class_name": "Zeros", "config": {}}, "moving_variance_initializer": {"class_name": "Ones", "config": {}}, "beta_regularizer": null, "gamma_regularizer": null, "beta_constraint": null, "gamma_constraint": null}, "name": "conv2_block3_2_bn", "inbound_nodes": [[["conv2_block3_2_conv", 0, 0, {}]]]}, {"class_name": "Activation", "config": {"name": "conv2_block3_2_relu", "trainable": true, "dtype": "float32", "activation": "relu"}, "name": "conv2_block3_2_relu", "inbound_nodes": [[["conv2_block3_2_bn", 0, 0, {}]]]}, {"class_name": "Conv2D", "config": {"name": "conv2_block3_3_conv", "trainable": true, "dtype": "float32", "filters": 256, "kernel_size": [1, 1], "strides": [1, 1], "padding": "valid", "data_format": "channels_last", "dilation_rate": [1, 1], "groups": 1, "activation": "linear", "use_bias": true, "kernel_initializer": {"class_name": "GlorotUniform", "config": {"seed": null}}, "bias_initializer": {"class_name": "Zeros", "config": {}}, "kernel_regularizer": null, "bias_regularizer": null, "activity_regularizer": null, "kernel_constraint": null, "bias_constraint": null}, "name": "conv2_block3_3_conv", "inbound_nodes": [[["conv2_block3_2_relu", 0, 0, {}]]]}, {"class_name": "BatchNormalization", "config": {"name": "conv2_block3_3_bn", "trainable": true, "dtype": "float32", "axis": [3], "momentum": 0.99, "epsilon": 1.001e-05, "center": true, "scale": true, "beta_initializer": {"class_name": "Zeros", "config": {}}, "gamma_initializer": {"class_name": "Ones", "config": {}}, "moving_mean_initializer": {"class_name": "Zeros", "config": {}}, "moving_variance_initializer": {"class_name": "Ones", "config": {}}, "beta_regularizer": null, "gamma_regularizer": null, "beta_constraint": null, "gamma_constraint": null}, "name": "conv2_block3_3_bn", "inbound_nodes": [[["conv2_block3_3_conv", 0, 0, {}]]]}, {"class_name": "Add", "config": {"name": "conv2_block3_add", "trainable": true, "dtype": "float32"}, "name": "conv2_block3_add", "inbound_nodes": [[["conv2_block2_out", 0, 0, {}], ["conv2_block3_3_bn", 0, 0, {}]]]}, {"class_name": "Activation", "config": {"name": "conv2_block3_out", "trainable": true, "dtype": "float32", "activation": "relu"}, "name": "conv2_block3_out", "inbound_nodes": [[["conv2_block3_add", 0, 0, {}]]]}, {"class_name": "Conv2D", "config": {"name": "conv3_block1_1_conv", "trainable": true, "dtype": "float32", "filters": 128, "kernel_size": [1, 1], "strides": [2, 2], "padding": "valid", "data_format": "channels_last", "dilation_rate": [1, 1], "groups": 1, "activation": "linear", "use_bias": true, "kernel_initializer": {"class_name": "GlorotUniform", "config": {"seed": null}}, "bias_initializer": {"class_name": "Zeros", "config": {}}, "kernel_regularizer": null, "bias_regularizer": null, "activity_regularizer": null, "kernel_constraint": null, "bias_constraint": null}, "name": "conv3_block1_1_conv", "inbound_nodes": [[["conv2_block3_out", 0, 0, {}]]]}, {"class_name": "BatchNormalization", "config": {"name": "conv3_block1_1_bn", "trainable": true, "dtype": "float32", "axis": [3], "momentum": 0.99, "epsilon": 1.001e-05, "center": true, "scale": true, "beta_initializer": {"class_name": "Zeros", "config": {}}, "gamma_initializer": {"class_name": "Ones", "config": {}}, "moving_mean_initializer": {"class_name": "Zeros", "config": {}}, "moving_variance_initializer": {"class_name": "Ones", "config": {}}, "beta_regularizer": null, "gamma_regularizer": null, "beta_constraint": null, "gamma_constraint": null}, "name": "conv3_block1_1_bn", "inbound_nodes": [[["conv3_block1_1_conv", 0, 0, {}]]]}, {"class_name": "Activation", "config": {"name": "conv3_block1_1_relu", "trainable": true, "dtype": "float32", "activation": "relu"}, "name": "conv3_block1_1_relu", "inbound_nodes": [[["conv3_block1_1_bn", 0, 0, {}]]]}, {"class_name": "Conv2D", "config": {"name": "conv3_block1_2_conv", "trainable": true, "dtype": "float32", "filters": 128, "kernel_size": [3, 3], "strides": [1, 1], "padding": "same", "data_format": "channels_last", "dilation_rate": [1, 1], "groups": 1, "activation": "linear", "use_bias": true, "kernel_initializer": {"class_name": "GlorotUniform", "config": {"seed": null}}, "bias_initializer": {"class_name": "Zeros", "config": {}}, "kernel_regularizer": null, "bias_regularizer": null, "activity_regularizer": null, "kernel_constraint": null, "bias_constraint": null}, "name": "conv3_block1_2_conv", "inbound_nodes": [[["conv3_block1_1_relu", 0, 0, {}]]]}, {"class_name": "BatchNormalization", "config": {"name": "conv3_block1_2_bn", "trainable": true, "dtype": "float32", "axis": [3], "momentum": 0.99, "epsilon": 1.001e-05, "center": true, "scale": true, "beta_initializer": {"class_name": "Zeros", "config": {}}, "gamma_initializer": {"class_name": "Ones", "config": {}}, "moving_mean_initializer": {"class_name": "Zeros", "config": {}}, "moving_variance_initializer": {"class_name": "Ones", "config": {}}, "beta_regularizer": null, "gamma_regularizer": null, "beta_constraint": null, "gamma_constraint": null}, "name": "conv3_block1_2_bn", "inbound_nodes": [[["conv3_block1_2_conv", 0, 0, {}]]]}, {"class_name": "Activation", "config": {"name": "conv3_block1_2_relu", "trainable": true, "dtype": "float32", "activation": "relu"}, "name": "conv3_block1_2_relu", "inbound_nodes": [[["conv3_block1_2_bn", 0, 0, {}]]]}, {"class_name": "Conv2D", "config": {"name": "conv3_block1_0_conv", "trainable": true, "dtype": "float32", "filters": 512, "kernel_size": [1, 1], "strides": [2, 2], "padding": "valid", "data_format": "channels_last", "dilation_rate": [1, 1], "groups": 1, "activation": "linear", "use_bias": true, "kernel_initializer": {"class_name": "GlorotUniform", "config": {"seed": null}}, "bias_initializer": {"class_name": "Zeros", "config": {}}, "kernel_regularizer": null, "bias_regularizer": null, "activity_regularizer": null, "kernel_constraint": null, "bias_constraint": null}, "name": "conv3_block1_0_conv", "inbound_nodes": [[["conv2_block3_out", 0, 0, {}]]]}, {"class_name": "Conv2D", "config": {"name": "conv3_block1_3_conv", "trainable": true, "dtype": "float32", "filters": 512, "kernel_size": [1, 1], "strides": [1, 1], "padding": "valid", "data_format": "channels_last", "dilation_rate": [1, 1], "groups": 1, "activation": "linear", "use_bias": true, "kernel_initializer": {"class_name": "GlorotUniform", "config": {"seed": null}}, "bias_initializer": {"class_name": "Zeros", "config": {}}, "kernel_regularizer": null, "bias_regularizer": null, "activity_regularizer": null, "kernel_constraint": null, "bias_constraint": null}, "name": "conv3_block1_3_conv", "inbound_nodes": [[["conv3_block1_2_relu", 0, 0, {}]]]}, {"class_name": "BatchNormalization", "config": {"name": "conv3_block1_0_bn", "trainable": true, "dtype": "float32", "axis": [3], "momentum": 0.99, "epsilon": 1.001e-05, "center": true, "scale": true, "beta_initializer": {"class_name": "Zeros", "config": {}}, "gamma_initializer": {"class_name": "Ones", "config": {}}, "moving_mean_initializer": {"class_name": "Zeros", "config": {}}, "moving_variance_initializer": {"class_name": "Ones", "config": {}}, "beta_regularizer": null, "gamma_regularizer": null, "beta_constraint": null, "gamma_constraint": null}, "name": "conv3_block1_0_bn", "inbound_nodes": [[["conv3_block1_0_conv", 0, 0, {}]]]}, {"class_name": "BatchNormalization", "config": {"name": "conv3_block1_3_bn", "trainable": true, "dtype": "float32", "axis": [3], "momentum": 0.99, "epsilon": 1.001e-05, "center": true, "scale": true, "beta_initializer": {"class_name": "Zeros", "config": {}}, "gamma_initializer": {"class_name": "Ones", "config": {}}, "moving_mean_initializer": {"class_name": "Zeros", "config": {}}, "moving_variance_initializer": {"class_name": "Ones", "config": {}}, "beta_regularizer": null, "gamma_regularizer": null, "beta_constraint": null, "gamma_constraint": null}, "name": "conv3_block1_3_bn", "inbound_nodes": [[["conv3_block1_3_conv", 0, 0, {}]]]}, {"class_name": "Add", "config": {"name": "conv3_block1_add", "trainable": true, "dtype": "float32"}, "name": "conv3_block1_add", "inbound_nodes": [[["conv3_block1_0_bn", 0, 0, {}], ["conv3_block1_3_bn", 0, 0, {}]]]}, {"class_name": "Activation", "config": {"name": "conv3_block1_out", "trainable": true, "dtype": "float32", "activation": "relu"}, "name": "conv3_block1_out", "inbound_nodes": [[["conv3_block1_add", 0, 0, {}]]]}, {"class_name": "Conv2D", "config": {"name": "conv3_block2_1_conv", "trainable": true, "dtype": "float32", "filters": 128, "kernel_size": [1, 1], "strides": [1, 1], "padding": "valid", "data_format": "channels_last", "dilation_rate": [1, 1], "groups": 1, "activation": "linear", "use_bias": true, "kernel_initializer": {"class_name": "GlorotUniform", "config": {"seed": null}}, "bias_initializer": {"class_name": "Zeros", "config": {}}, "kernel_regularizer": null, "bias_regularizer": null, "activity_regularizer": null, "kernel_constraint": null, "bias_constraint": null}, "name": "conv3_block2_1_conv", "inbound_nodes": [[["conv3_block1_out", 0, 0, {}]]]}, {"class_name": "BatchNormalization", "config": {"name": "conv3_block2_1_bn", "trainable": true, "dtype": "float32", "axis": [3], "momentum": 0.99, "epsilon": 1.001e-05, "center": true, "scale": true, "beta_initializer": {"class_name": "Zeros", "config": {}}, "gamma_initializer": {"class_name": "Ones", "config": {}}, "moving_mean_initializer": {"class_name": "Zeros", "config": {}}, "moving_variance_initializer": {"class_name": "Ones", "config": {}}, "beta_regularizer": null, "gamma_regularizer": null, "beta_constraint": null, "gamma_constraint": null}, "name": "conv3_block2_1_bn", "inbound_nodes": [[["conv3_block2_1_conv", 0, 0, {}]]]}, {"class_name": "Activation", "config": {"name": "conv3_block2_1_relu", "trainable": true, "dtype": "float32", "activation": "relu"}, "name": "conv3_block2_1_relu", "inbound_nodes": [[["conv3_block2_1_bn", 0, 0, {}]]]}, {"class_name": "Conv2D", "config": {"name": "conv3_block2_2_conv", "trainable": true, "dtype": "float32", "filters": 128, "kernel_size": [3, 3], "strides": [1, 1], "padding": "same", "data_format": "channels_last", "dilation_rate": [1, 1], "groups": 1, "activation": "linear", "use_bias": true, "kernel_initializer": {"class_name": "GlorotUniform", "config": {"seed": null}}, "bias_initializer": {"class_name": "Zeros", "config": {}}, "kernel_regularizer": null, "bias_regularizer": null, "activity_regularizer": null, "kernel_constraint": null, "bias_constraint": null}, "name": "conv3_block2_2_conv", "inbound_nodes": [[["conv3_block2_1_relu", 0, 0, {}]]]}, {"class_name": "BatchNormalization", "config": {"name": "conv3_block2_2_bn", "trainable": true, "dtype": "float32", "axis": [3], "momentum": 0.99, "epsilon": 1.001e-05, "center": true, "scale": true, "beta_initializer": {"class_name": "Zeros", "config": {}}, "gamma_initializer": {"class_name": "Ones", "config": {}}, "moving_mean_initializer": {"class_name": "Zeros", "config": {}}, "moving_variance_initializer": {"class_name": "Ones", "config": {}}, "beta_regularizer": null, "gamma_regularizer": null, "beta_constraint": null, "gamma_constraint": null}, "name": "conv3_block2_2_bn", "inbound_nodes": [[["conv3_block2_2_conv", 0, 0, {}]]]}, {"class_name": "Activation", "config": {"name": "conv3_block2_2_relu", "trainable": true, "dtype": "float32", "activation": "relu"}, "name": "conv3_block2_2_relu", "inbound_nodes": [[["conv3_block2_2_bn", 0, 0, {}]]]}, {"class_name": "Conv2D", "config": {"name": "conv3_block2_3_conv", "trainable": true, "dtype": "float32", "filters": 512, "kernel_size": [1, 1], "strides": [1, 1], "padding": "valid", "data_format": "channels_last", "dilation_rate": [1, 1], "groups": 1, "activation": "linear", "use_bias": true, "kernel_initializer": {"class_name": "GlorotUniform", "config": {"seed": null}}, "bias_initializer": {"class_name": "Zeros", "config": {}}, "kernel_regularizer": null, "bias_regularizer": null, "activity_regularizer": null, "kernel_constraint": null, "bias_constraint": null}, "name": "conv3_block2_3_conv", "inbound_nodes": [[["conv3_block2_2_relu", 0, 0, {}]]]}, {"class_name": "BatchNormalization", "config": {"name": "conv3_block2_3_bn", "trainable": true, "dtype": "float32", "axis": [3], "momentum": 0.99, "epsilon": 1.001e-05, "center": true, "scale": true, "beta_initializer": {"class_name": "Zeros", "config": {}}, "gamma_initializer": {"class_name": "Ones", "config": {}}, "moving_mean_initializer": {"class_name": "Zeros", "config": {}}, "moving_variance_initializer": {"class_name": "Ones", "config": {}}, "beta_regularizer": null, "gamma_regularizer": null, "beta_constraint": null, "gamma_constraint": null}, "name": "conv3_block2_3_bn", "inbound_nodes": [[["conv3_block2_3_conv", 0, 0, {}]]]}, {"class_name": "Add", "config": {"name": "conv3_block2_add", "trainable": true, "dtype": "float32"}, "name": "conv3_block2_add", "inbound_nodes": [[["conv3_block1_out", 0, 0, {}], ["conv3_block2_3_bn", 0, 0, {}]]]}, {"class_name": "Activation", "config": {"name": "conv3_block2_out", "trainable": true, "dtype": "float32", "activation": "relu"}, "name": "conv3_block2_out", "inbound_nodes": [[["conv3_block2_add", 0, 0, {}]]]}, {"class_name": "Conv2D", "config": {"name": "conv3_block3_1_conv", "trainable": true, "dtype": "float32", "filters": 128, "kernel_size": [1, 1], "strides": [1, 1], "padding": "valid", "data_format": "channels_last", "dilation_rate": [1, 1], "groups": 1, "activation": "linear", "use_bias": true, "kernel_initializer": {"class_name": "GlorotUniform", "config": {"seed": null}}, "bias_initializer": {"class_name": "Zeros", "config": {}}, "kernel_regularizer": null, "bias_regularizer": null, "activity_regularizer": null, "kernel_constraint": null, "bias_constraint": null}, "name": "conv3_block3_1_conv", "inbound_nodes": [[["conv3_block2_out", 0, 0, {}]]]}, {"class_name": "BatchNormalization", "config": {"name": "conv3_block3_1_bn", "trainable": true, "dtype": "float32", "axis": [3], "momentum": 0.99, "epsilon": 1.001e-05, "center": true, "scale": true, "beta_initializer": {"class_name": "Zeros", "config": {}}, "gamma_initializer": {"class_name": "Ones", "config": {}}, "moving_mean_initializer": {"class_name": "Zeros", "config": {}}, "moving_variance_initializer": {"class_name": "Ones", "config": {}}, "beta_regularizer": null, "gamma_regularizer": null, "beta_constraint": null, "gamma_constraint": null}, "name": "conv3_block3_1_bn", "inbound_nodes": [[["conv3_block3_1_conv", 0, 0, {}]]]}, {"class_name": "Activation", "config": {"name": "conv3_block3_1_relu", "trainable": true, "dtype": "float32", "activation": "relu"}, "name": "conv3_block3_1_relu", "inbound_nodes": [[["conv3_block3_1_bn", 0, 0, {}]]]}, {"class_name": "Conv2D", "config": {"name": "conv3_block3_2_conv", "trainable": true, "dtype": "float32", "filters": 128, "kernel_size": [3, 3], "strides": [1, 1], "padding": "same", "data_format": "channels_last", "dilation_rate": [1, 1], "groups": 1, "activation": "linear", "use_bias": true, "kernel_initializer": {"class_name": "GlorotUniform", "config": {"seed": null}}, "bias_initializer": {"class_name": "Zeros", "config": {}}, "kernel_regularizer": null, "bias_regularizer": null, "activity_regularizer": null, "kernel_constraint": null, "bias_constraint": null}, "name": "conv3_block3_2_conv", "inbound_nodes": [[["conv3_block3_1_relu", 0, 0, {}]]]}, {"class_name": "BatchNormalization", "config": {"name": "conv3_block3_2_bn", "trainable": true, "dtype": "float32", "axis": [3], "momentum": 0.99, "epsilon": 1.001e-05, "center": true, "scale": true, "beta_initializer": {"class_name": "Zeros", "config": {}}, "gamma_initializer": {"class_name": "Ones", "config": {}}, "moving_mean_initializer": {"class_name": "Zeros", "config": {}}, "moving_variance_initializer": {"class_name": "Ones", "config": {}}, "beta_regularizer": null, "gamma_regularizer": null, "beta_constraint": null, "gamma_constraint": null}, "name": "conv3_block3_2_bn", "inbound_nodes": [[["conv3_block3_2_conv", 0, 0, {}]]]}, {"class_name": "Activation", "config": {"name": "conv3_block3_2_relu", "trainable": true, "dtype": "float32", "activation": "relu"}, "name": "conv3_block3_2_relu", "inbound_nodes": [[["conv3_block3_2_bn", 0, 0, {}]]]}, {"class_name": "Conv2D", "config": {"name": "conv3_block3_3_conv", "trainable": true, "dtype": "float32", "filters": 512, "kernel_size": [1, 1], "strides": [1, 1], "padding": "valid", "data_format": "channels_last", "dilation_rate": [1, 1], "groups": 1, "activation": "linear", "use_bias": true, "kernel_initializer": {"class_name": "GlorotUniform", "config": {"seed": null}}, "bias_initializer": {"class_name": "Zeros", "config": {}}, "kernel_regularizer": null, "bias_regularizer": null, "activity_regularizer": null, "kernel_constraint": null, "bias_constraint": null}, "name": "conv3_block3_3_conv", "inbound_nodes": [[["conv3_block3_2_relu", 0, 0, {}]]]}, {"class_name": "BatchNormalization", "config": {"name": "conv3_block3_3_bn", "trainable": true, "dtype": "float32", "axis": [3], "momentum": 0.99, "epsilon": 1.001e-05, "center": true, "scale": true, "beta_initializer": {"class_name": "Zeros", "config": {}}, "gamma_initializer": {"class_name": "Ones", "config": {}}, "moving_mean_initializer": {"class_name": "Zeros", "config": {}}, "moving_variance_initializer": {"class_name": "Ones", "config": {}}, "beta_regularizer": null, "gamma_regularizer": null, "beta_constraint": null, "gamma_constraint": null}, "name": "conv3_block3_3_bn", "inbound_nodes": [[["conv3_block3_3_conv", 0, 0, {}]]]}, {"class_name": "Add", "config": {"name": "conv3_block3_add", "trainable": true, "dtype": "float32"}, "name": "conv3_block3_add", "inbound_nodes": [[["conv3_block2_out", 0, 0, {}], ["conv3_block3_3_bn", 0, 0, {}]]]}, {"class_name": "Activation", "config": {"name": "conv3_block3_out", "trainable": true, "dtype": "float32", "activation": "relu"}, "name": "conv3_block3_out", "inbound_nodes": [[["conv3_block3_add", 0, 0, {}]]]}, {"class_name": "Conv2D", "config": {"name": "conv3_block4_1_conv", "trainable": true, "dtype": "float32", "filters": 128, "kernel_size": [1, 1], "strides": [1, 1], "padding": "valid", "data_format": "channels_last", "dilation_rate": [1, 1], "groups": 1, "activation": "linear", "use_bias": true, "kernel_initializer": {"class_name": "GlorotUniform", "config": {"seed": null}}, "bias_initializer": {"class_name": "Zeros", "config": {}}, "kernel_regularizer": null, "bias_regularizer": null, "activity_regularizer": null, "kernel_constraint": null, "bias_constraint": null}, "name": "conv3_block4_1_conv", "inbound_nodes": [[["conv3_block3_out", 0, 0, {}]]]}, {"class_name": "BatchNormalization", "config": {"name": "conv3_block4_1_bn", "trainable": true, "dtype": "float32", "axis": [3], "momentum": 0.99, "epsilon": 1.001e-05, "center": true, "scale": true, "beta_initializer": {"class_name": "Zeros", "config": {}}, "gamma_initializer": {"class_name": "Ones", "config": {}}, "moving_mean_initializer": {"class_name": "Zeros", "config": {}}, "moving_variance_initializer": {"class_name": "Ones", "config": {}}, "beta_regularizer": null, "gamma_regularizer": null, "beta_constraint": null, "gamma_constraint": null}, "name": "conv3_block4_1_bn", "inbound_nodes": [[["conv3_block4_1_conv", 0, 0, {}]]]}, {"class_name": "Activation", "config": {"name": "conv3_block4_1_relu", "trainable": true, "dtype": "float32", "activation": "relu"}, "name": "conv3_block4_1_relu", "inbound_nodes": [[["conv3_block4_1_bn", 0, 0, {}]]]}, {"class_name": "Conv2D", "config": {"name": "conv3_block4_2_conv", "trainable": true, "dtype": "float32", "filters": 128, "kernel_size": [3, 3], "strides": [1, 1], "padding": "same", "data_format": "channels_last", "dilation_rate": [1, 1], "groups": 1, "activation": "linear", "use_bias": true, "kernel_initializer": {"class_name": "GlorotUniform", "config": {"seed": null}}, "bias_initializer": {"class_name": "Zeros", "config": {}}, "kernel_regularizer": null, "bias_regularizer": null, "activity_regularizer": null, "kernel_constraint": null, "bias_constraint": null}, "name": "conv3_block4_2_conv", "inbound_nodes": [[["conv3_block4_1_relu", 0, 0, {}]]]}, {"class_name": "BatchNormalization", "config": {"name": "conv3_block4_2_bn", "trainable": true, "dtype": "float32", "axis": [3], "momentum": 0.99, "epsilon": 1.001e-05, "center": true, "scale": true, "beta_initializer": {"class_name": "Zeros", "config": {}}, "gamma_initializer": {"class_name": "Ones", "config": {}}, "moving_mean_initializer": {"class_name": "Zeros", "config": {}}, "moving_variance_initializer": {"class_name": "Ones", "config": {}}, "beta_regularizer": null, "gamma_regularizer": null, "beta_constraint": null, "gamma_constraint": null}, "name": "conv3_block4_2_bn", "inbound_nodes": [[["conv3_block4_2_conv", 0, 0, {}]]]}, {"class_name": "Activation", "config": {"name": "conv3_block4_2_relu", "trainable": true, "dtype": "float32", "activation": "relu"}, "name": "conv3_block4_2_relu", "inbound_nodes": [[["conv3_block4_2_bn", 0, 0, {}]]]}, {"class_name": "Conv2D", "config": {"name": "conv3_block4_3_conv", "trainable": true, "dtype": "float32", "filters": 512, "kernel_size": [1, 1], "strides": [1, 1], "padding": "valid", "data_format": "channels_last", "dilation_rate": [1, 1], "groups": 1, "activation": "linear", "use_bias": true, "kernel_initializer": {"class_name": "GlorotUniform", "config": {"seed": null}}, "bias_initializer": {"class_name": "Zeros", "config": {}}, "kernel_regularizer": null, "bias_regularizer": null, "activity_regularizer": null, "kernel_constraint": null, "bias_constraint": null}, "name": "conv3_block4_3_conv", "inbound_nodes": [[["conv3_block4_2_relu", 0, 0, {}]]]}, {"class_name": "BatchNormalization", "config": {"name": "conv3_block4_3_bn", "trainable": true, "dtype": "float32", "axis": [3], "momentum": 0.99, "epsilon": 1.001e-05, "center": true, "scale": true, "beta_initializer": {"class_name": "Zeros", "config": {}}, "gamma_initializer": {"class_name": "Ones", "config": {}}, "moving_mean_initializer": {"class_name": "Zeros", "config": {}}, "moving_variance_initializer": {"class_name": "Ones", "config": {}}, "beta_regularizer": null, "gamma_regularizer": null, "beta_constraint": null, "gamma_constraint": null}, "name": "conv3_block4_3_bn", "inbound_nodes": [[["conv3_block4_3_conv", 0, 0, {}]]]}, {"class_name": "Add", "config": {"name": "conv3_block4_add", "trainable": true, "dtype": "float32"}, "name": "conv3_block4_add", "inbound_nodes": [[["conv3_block3_out", 0, 0, {}], ["conv3_block4_3_bn", 0, 0, {}]]]}, {"class_name": "Activation", "config": {"name": "conv3_block4_out", "trainable": true, "dtype": "float32", "activation": "relu"}, "name": "conv3_block4_out", "inbound_nodes": [[["conv3_block4_add", 0, 0, {}]]]}, {"class_name": "Conv2D", "config": {"name": "conv4_block1_1_conv", "trainable": true, "dtype": "float32", "filters": 256, "kernel_size": [1, 1], "strides": [2, 2], "padding": "valid", "data_format": "channels_last", "dilation_rate": [1, 1], "groups": 1, "activation": "linear", "use_bias": true, "kernel_initializer": {"class_name": "GlorotUniform", "config": {"seed": null}}, "bias_initializer": {"class_name": "Zeros", "config": {}}, "kernel_regularizer": null, "bias_regularizer": null, "activity_regularizer": null, "kernel_constraint": null, "bias_constraint": null}, "name": "conv4_block1_1_conv", "inbound_nodes": [[["conv3_block4_out", 0, 0, {}]]]}, {"class_name": "BatchNormalization", "config": {"name": "conv4_block1_1_bn", "trainable": true, "dtype": "float32", "axis": [3], "momentum": 0.99, "epsilon": 1.001e-05, "center": true, "scale": true, "beta_initializer": {"class_name": "Zeros", "config": {}}, "gamma_initializer": {"class_name": "Ones", "config": {}}, "moving_mean_initializer": {"class_name": "Zeros", "config": {}}, "moving_variance_initializer": {"class_name": "Ones", "config": {}}, "beta_regularizer": null, "gamma_regularizer": null, "beta_constraint": null, "gamma_constraint": null}, "name": "conv4_block1_1_bn", "inbound_nodes": [[["conv4_block1_1_conv", 0, 0, {}]]]}, {"class_name": "Activation", "config": {"name": "conv4_block1_1_relu", "trainable": true, "dtype": "float32", "activation": "relu"}, "name": "conv4_block1_1_relu", "inbound_nodes": [[["conv4_block1_1_bn", 0, 0, {}]]]}, {"class_name": "Conv2D", "config": {"name": "conv4_block1_2_conv", "trainable": true, "dtype": "float32", "filters": 256, "kernel_size": [3, 3], "strides": [1, 1], "padding": "same", "data_format": "channels_last", "dilation_rate": [1, 1], "groups": 1, "activation": "linear", "use_bias": true, "kernel_initializer": {"class_name": "GlorotUniform", "config": {"seed": null}}, "bias_initializer": {"class_name": "Zeros", "config": {}}, "kernel_regularizer": null, "bias_regularizer": null, "activity_regularizer": null, "kernel_constraint": null, "bias_constraint": null}, "name": "conv4_block1_2_conv", "inbound_nodes": [[["conv4_block1_1_relu", 0, 0, {}]]]}, {"class_name": "BatchNormalization", "config": {"name": "conv4_block1_2_bn", "trainable": true, "dtype": "float32", "axis": [3], "momentum": 0.99, "epsilon": 1.001e-05, "center": true, "scale": true, "beta_initializer": {"class_name": "Zeros", "config": {}}, "gamma_initializer": {"class_name": "Ones", "config": {}}, "moving_mean_initializer": {"class_name": "Zeros", "config": {}}, "moving_variance_initializer": {"class_name": "Ones", "config": {}}, "beta_regularizer": null, "gamma_regularizer": null, "beta_constraint": null, "gamma_constraint": null}, "name": "conv4_block1_2_bn", "inbound_nodes": [[["conv4_block1_2_conv", 0, 0, {}]]]}, {"class_name": "Activation", "config": {"name": "conv4_block1_2_relu", "trainable": true, "dtype": "float32", "activation": "relu"}, "name": "conv4_block1_2_relu", "inbound_nodes": [[["conv4_block1_2_bn", 0, 0, {}]]]}, {"class_name": "Conv2D", "config": {"name": "conv4_block1_0_conv", "trainable": true, "dtype": "float32", "filters": 1024, "kernel_size": [1, 1], "strides": [2, 2], "padding": "valid", "data_format": "channels_last", "dilation_rate": [1, 1], "groups": 1, "activation": "linear", "use_bias": true, "kernel_initializer": {"class_name": "GlorotUniform", "config": {"seed": null}}, "bias_initializer": {"class_name": "Zeros", "config": {}}, "kernel_regularizer": null, "bias_regularizer": null, "activity_regularizer": null, "kernel_constraint": null, "bias_constraint": null}, "name": "conv4_block1_0_conv", "inbound_nodes": [[["conv3_block4_out", 0, 0, {}]]]}, {"class_name": "Conv2D", "config": {"name": "conv4_block1_3_conv", "trainable": true, "dtype": "float32", "filters": 1024, "kernel_size": [1, 1], "strides": [1, 1], "padding": "valid", "data_format": "channels_last", "dilation_rate": [1, 1], "groups": 1, "activation": "linear", "use_bias": true, "kernel_initializer": {"class_name": "GlorotUniform", "config": {"seed": null}}, "bias_initializer": {"class_name": "Zeros", "config": {}}, "kernel_regularizer": null, "bias_regularizer": null, "activity_regularizer": null, "kernel_constraint": null, "bias_constraint": null}, "name": "conv4_block1_3_conv", "inbound_nodes": [[["conv4_block1_2_relu", 0, 0, {}]]]}, {"class_name": "BatchNormalization", "config": {"name": "conv4_block1_0_bn", "trainable": true, "dtype": "float32", "axis": [3], "momentum": 0.99, "epsilon": 1.001e-05, "center": true, "scale": true, "beta_initializer": {"class_name": "Zeros", "config": {}}, "gamma_initializer": {"class_name": "Ones", "config": {}}, "moving_mean_initializer": {"class_name": "Zeros", "config": {}}, "moving_variance_initializer": {"class_name": "Ones", "config": {}}, "beta_regularizer": null, "gamma_regularizer": null, "beta_constraint": null, "gamma_constraint": null}, "name": "conv4_block1_0_bn", "inbound_nodes": [[["conv4_block1_0_conv", 0, 0, {}]]]}, {"class_name": "BatchNormalization", "config": {"name": "conv4_block1_3_bn", "trainable": true, "dtype": "float32", "axis": [3], "momentum": 0.99, "epsilon": 1.001e-05, "center": true, "scale": true, "beta_initializer": {"class_name": "Zeros", "config": {}}, "gamma_initializer": {"class_name": "Ones", "config": {}}, "moving_mean_initializer": {"class_name": "Zeros", "config": {}}, "moving_variance_initializer": {"class_name": "Ones", "config": {}}, "beta_regularizer": null, "gamma_regularizer": null, "beta_constraint": null, "gamma_constraint": null}, "name": "conv4_block1_3_bn", "inbound_nodes": [[["conv4_block1_3_conv", 0, 0, {}]]]}, {"class_name": "Add", "config": {"name": "conv4_block1_add", "trainable": true, "dtype": "float32"}, "name": "conv4_block1_add", "inbound_nodes": [[["conv4_block1_0_bn", 0, 0, {}], ["conv4_block1_3_bn", 0, 0, {}]]]}, {"class_name": "Activation", "config": {"name": "conv4_block1_out", "trainable": true, "dtype": "float32", "activation": "relu"}, "name": "conv4_block1_out", "inbound_nodes": [[["conv4_block1_add", 0, 0, {}]]]}, {"class_name": "Conv2D", "config": {"name": "conv4_block2_1_conv", "trainable": true, "dtype": "float32", "filters": 256, "kernel_size": [1, 1], "strides": [1, 1], "padding": "valid", "data_format": "channels_last", "dilation_rate": [1, 1], "groups": 1, "activation": "linear", "use_bias": true, "kernel_initializer": {"class_name": "GlorotUniform", "config": {"seed": null}}, "bias_initializer": {"class_name": "Zeros", "config": {}}, "kernel_regularizer": null, "bias_regularizer": null, "activity_regularizer": null, "kernel_constraint": null, "bias_constraint": null}, "name": "conv4_block2_1_conv", "inbound_nodes": [[["conv4_block1_out", 0, 0, {}]]]}, {"class_name": "BatchNormalization", "config": {"name": "conv4_block2_1_bn", "trainable": true, "dtype": "float32", "axis": [3], "momentum": 0.99, "epsilon": 1.001e-05, "center": true, "scale": true, "beta_initializer": {"class_name": "Zeros", "config": {}}, "gamma_initializer": {"class_name": "Ones", "config": {}}, "moving_mean_initializer": {"class_name": "Zeros", "config": {}}, "moving_variance_initializer": {"class_name": "Ones", "config": {}}, "beta_regularizer": null, "gamma_regularizer": null, "beta_constraint": null, "gamma_constraint": null}, "name": "conv4_block2_1_bn", "inbound_nodes": [[["conv4_block2_1_conv", 0, 0, {}]]]}, {"class_name": "Activation", "config": {"name": "conv4_block2_1_relu", "trainable": true, "dtype": "float32", "activation": "relu"}, "name": "conv4_block2_1_relu", "inbound_nodes": [[["conv4_block2_1_bn", 0, 0, {}]]]}, {"class_name": "Conv2D", "config": {"name": "conv4_block2_2_conv", "trainable": true, "dtype": "float32", "filters": 256, "kernel_size": [3, 3], "strides": [1, 1], "padding": "same", "data_format": "channels_last", "dilation_rate": [1, 1], "groups": 1, "activation": "linear", "use_bias": true, "kernel_initializer": {"class_name": "GlorotUniform", "config": {"seed": null}}, "bias_initializer": {"class_name": "Zeros", "config": {}}, "kernel_regularizer": null, "bias_regularizer": null, "activity_regularizer": null, "kernel_constraint": null, "bias_constraint": null}, "name": "conv4_block2_2_conv", "inbound_nodes": [[["conv4_block2_1_relu", 0, 0, {}]]]}, {"class_name": "BatchNormalization", "config": {"name": "conv4_block2_2_bn", "trainable": true, "dtype": "float32", "axis": [3], "momentum": 0.99, "epsilon": 1.001e-05, "center": true, "scale": true, "beta_initializer": {"class_name": "Zeros", "config": {}}, "gamma_initializer": {"class_name": "Ones", "config": {}}, "moving_mean_initializer": {"class_name": "Zeros", "config": {}}, "moving_variance_initializer": {"class_name": "Ones", "config": {}}, "beta_regularizer": null, "gamma_regularizer": null, "beta_constraint": null, "gamma_constraint": null}, "name": "conv4_block2_2_bn", "inbound_nodes": [[["conv4_block2_2_conv", 0, 0, {}]]]}, {"class_name": "Activation", "config": {"name": "conv4_block2_2_relu", "trainable": true, "dtype": "float32", "activation": "relu"}, "name": "conv4_block2_2_relu", "inbound_nodes": [[["conv4_block2_2_bn", 0, 0, {}]]]}, {"class_name": "Conv2D", "config": {"name": "conv4_block2_3_conv", "trainable": true, "dtype": "float32", "filters": 1024, "kernel_size": [1, 1], "strides": [1, 1], "padding": "valid", "data_format": "channels_last", "dilation_rate": [1, 1], "groups": 1, "activation": "linear", "use_bias": true, "kernel_initializer": {"class_name": "GlorotUniform", "config": {"seed": null}}, "bias_initializer": {"class_name": "Zeros", "config": {}}, "kernel_regularizer": null, "bias_regularizer": null, "activity_regularizer": null, "kernel_constraint": null, "bias_constraint": null}, "name": "conv4_block2_3_conv", "inbound_nodes": [[["conv4_block2_2_relu", 0, 0, {}]]]}, {"class_name": "BatchNormalization", "config": {"name": "conv4_block2_3_bn", "trainable": true, "dtype": "float32", "axis": [3], "momentum": 0.99, "epsilon": 1.001e-05, "center": true, "scale": true, "beta_initializer": {"class_name": "Zeros", "config": {}}, "gamma_initializer": {"class_name": "Ones", "config": {}}, "moving_mean_initializer": {"class_name": "Zeros", "config": {}}, "moving_variance_initializer": {"class_name": "Ones", "config": {}}, "beta_regularizer": null, "gamma_regularizer": null, "beta_constraint": null, "gamma_constraint": null}, "name": "conv4_block2_3_bn", "inbound_nodes": [[["conv4_block2_3_conv", 0, 0, {}]]]}, {"class_name": "Add", "config": {"name": "conv4_block2_add", "trainable": true, "dtype": "float32"}, "name": "conv4_block2_add", "inbound_nodes": [[["conv4_block1_out", 0, 0, {}], ["conv4_block2_3_bn", 0, 0, {}]]]}, {"class_name": "Activation", "config": {"name": "conv4_block2_out", "trainable": true, "dtype": "float32", "activation": "relu"}, "name": "conv4_block2_out", "inbound_nodes": [[["conv4_block2_add", 0, 0, {}]]]}, {"class_name": "Conv2D", "config": {"name": "conv4_block3_1_conv", "trainable": true, "dtype": "float32", "filters": 256, "kernel_size": [1, 1], "strides": [1, 1], "padding": "valid", "data_format": "channels_last", "dilation_rate": [1, 1], "groups": 1, "activation": "linear", "use_bias": true, "kernel_initializer": {"class_name": "GlorotUniform", "config": {"seed": null}}, "bias_initializer": {"class_name": "Zeros", "config": {}}, "kernel_regularizer": null, "bias_regularizer": null, "activity_regularizer": null, "kernel_constraint": null, "bias_constraint": null}, "name": "conv4_block3_1_conv", "inbound_nodes": [[["conv4_block2_out", 0, 0, {}]]]}, {"class_name": "BatchNormalization", "config": {"name": "conv4_block3_1_bn", "trainable": true, "dtype": "float32", "axis": [3], "momentum": 0.99, "epsilon": 1.001e-05, "center": true, "scale": true, "beta_initializer": {"class_name": "Zeros", "config": {}}, "gamma_initializer": {"class_name": "Ones", "config": {}}, "moving_mean_initializer": {"class_name": "Zeros", "config": {}}, "moving_variance_initializer": {"class_name": "Ones", "config": {}}, "beta_regularizer": null, "gamma_regularizer": null, "beta_constraint": null, "gamma_constraint": null}, "name": "conv4_block3_1_bn", "inbound_nodes": [[["conv4_block3_1_conv", 0, 0, {}]]]}, {"class_name": "Activation", "config": {"name": "conv4_block3_1_relu", "trainable": true, "dtype": "float32", "activation": "relu"}, "name": "conv4_block3_1_relu", "inbound_nodes": [[["conv4_block3_1_bn", 0, 0, {}]]]}, {"class_name": "Conv2D", "config": {"name": "conv4_block3_2_conv", "trainable": true, "dtype": "float32", "filters": 256, "kernel_size": [3, 3], "strides": [1, 1], "padding": "same", "data_format": "channels_last", "dilation_rate": [1, 1], "groups": 1, "activation": "linear", "use_bias": true, "kernel_initializer": {"class_name": "GlorotUniform", "config": {"seed": null}}, "bias_initializer": {"class_name": "Zeros", "config": {}}, "kernel_regularizer": null, "bias_regularizer": null, "activity_regularizer": null, "kernel_constraint": null, "bias_constraint": null}, "name": "conv4_block3_2_conv", "inbound_nodes": [[["conv4_block3_1_relu", 0, 0, {}]]]}, {"class_name": "BatchNormalization", "config": {"name": "conv4_block3_2_bn", "trainable": true, "dtype": "float32", "axis": [3], "momentum": 0.99, "epsilon": 1.001e-05, "center": true, "scale": true, "beta_initializer": {"class_name": "Zeros", "config": {}}, "gamma_initializer": {"class_name": "Ones", "config": {}}, "moving_mean_initializer": {"class_name": "Zeros", "config": {}}, "moving_variance_initializer": {"class_name": "Ones", "config": {}}, "beta_regularizer": null, "gamma_regularizer": null, "beta_constraint": null, "gamma_constraint": null}, "name": "conv4_block3_2_bn", "inbound_nodes": [[["conv4_block3_2_conv", 0, 0, {}]]]}, {"class_name": "Activation", "config": {"name": "conv4_block3_2_relu", "trainable": true, "dtype": "float32", "activation": "relu"}, "name": "conv4_block3_2_relu", "inbound_nodes": [[["conv4_block3_2_bn", 0, 0, {}]]]}, {"class_name": "Conv2D", "config": {"name": "conv4_block3_3_conv", "trainable": true, "dtype": "float32", "filters": 1024, "kernel_size": [1, 1], "strides": [1, 1], "padding": "valid", "data_format": "channels_last", "dilation_rate": [1, 1], "groups": 1, "activation": "linear", "use_bias": true, "kernel_initializer": {"class_name": "GlorotUniform", "config": {"seed": null}}, "bias_initializer": {"class_name": "Zeros", "config": {}}, "kernel_regularizer": null, "bias_regularizer": null, "activity_regularizer": null, "kernel_constraint": null, "bias_constraint": null}, "name": "conv4_block3_3_conv", "inbound_nodes": [[["conv4_block3_2_relu", 0, 0, {}]]]}, {"class_name": "BatchNormalization", "config": {"name": "conv4_block3_3_bn", "trainable": true, "dtype": "float32", "axis": [3], "momentum": 0.99, "epsilon": 1.001e-05, "center": true, "scale": true, "beta_initializer": {"class_name": "Zeros", "config": {}}, "gamma_initializer": {"class_name": "Ones", "config": {}}, "moving_mean_initializer": {"class_name": "Zeros", "config": {}}, "moving_variance_initializer": {"class_name": "Ones", "config": {}}, "beta_regularizer": null, "gamma_regularizer": null, "beta_constraint": null, "gamma_constraint": null}, "name": "conv4_block3_3_bn", "inbound_nodes": [[["conv4_block3_3_conv", 0, 0, {}]]]}, {"class_name": "Add", "config": {"name": "conv4_block3_add", "trainable": true, "dtype": "float32"}, "name": "conv4_block3_add", "inbound_nodes": [[["conv4_block2_out", 0, 0, {}], ["conv4_block3_3_bn", 0, 0, {}]]]}, {"class_name": "Activation", "config": {"name": "conv4_block3_out", "trainable": true, "dtype": "float32", "activation": "relu"}, "name": "conv4_block3_out", "inbound_nodes": [[["conv4_block3_add", 0, 0, {}]]]}, {"class_name": "Conv2D", "config": {"name": "conv4_block4_1_conv", "trainable": true, "dtype": "float32", "filters": 256, "kernel_size": [1, 1], "strides": [1, 1], "padding": "valid", "data_format": "channels_last", "dilation_rate": [1, 1], "groups": 1, "activation": "linear", "use_bias": true, "kernel_initializer": {"class_name": "GlorotUniform", "config": {"seed": null}}, "bias_initializer": {"class_name": "Zeros", "config": {}}, "kernel_regularizer": null, "bias_regularizer": null, "activity_regularizer": null, "kernel_constraint": null, "bias_constraint": null}, "name": "conv4_block4_1_conv", "inbound_nodes": [[["conv4_block3_out", 0, 0, {}]]]}, {"class_name": "BatchNormalization", "config": {"name": "conv4_block4_1_bn", "trainable": true, "dtype": "float32", "axis": [3], "momentum": 0.99, "epsilon": 1.001e-05, "center": true, "scale": true, "beta_initializer": {"class_name": "Zeros", "config": {}}, "gamma_initializer": {"class_name": "Ones", "config": {}}, "moving_mean_initializer": {"class_name": "Zeros", "config": {}}, "moving_variance_initializer": {"class_name": "Ones", "config": {}}, "beta_regularizer": null, "gamma_regularizer": null, "beta_constraint": null, "gamma_constraint": null}, "name": "conv4_block4_1_bn", "inbound_nodes": [[["conv4_block4_1_conv", 0, 0, {}]]]}, {"class_name": "Activation", "config": {"name": "conv4_block4_1_relu", "trainable": true, "dtype": "float32", "activation": "relu"}, "name": "conv4_block4_1_relu", "inbound_nodes": [[["conv4_block4_1_bn", 0, 0, {}]]]}, {"class_name": "Conv2D", "config": {"name": "conv4_block4_2_conv", "trainable": true, "dtype": "float32", "filters": 256, "kernel_size": [3, 3], "strides": [1, 1], "padding": "same", "data_format": "channels_last", "dilation_rate": [1, 1], "groups": 1, "activation": "linear", "use_bias": true, "kernel_initializer": {"class_name": "GlorotUniform", "config": {"seed": null}}, "bias_initializer": {"class_name": "Zeros", "config": {}}, "kernel_regularizer": null, "bias_regularizer": null, "activity_regularizer": null, "kernel_constraint": null, "bias_constraint": null}, "name": "conv4_block4_2_conv", "inbound_nodes": [[["conv4_block4_1_relu", 0, 0, {}]]]}, {"class_name": "BatchNormalization", "config": {"name": "conv4_block4_2_bn", "trainable": true, "dtype": "float32", "axis": [3], "momentum": 0.99, "epsilon": 1.001e-05, "center": true, "scale": true, "beta_initializer": {"class_name": "Zeros", "config": {}}, "gamma_initializer": {"class_name": "Ones", "config": {}}, "moving_mean_initializer": {"class_name": "Zeros", "config": {}}, "moving_variance_initializer": {"class_name": "Ones", "config": {}}, "beta_regularizer": null, "gamma_regularizer": null, "beta_constraint": null, "gamma_constraint": null}, "name": "conv4_block4_2_bn", "inbound_nodes": [[["conv4_block4_2_conv", 0, 0, {}]]]}, {"class_name": "Activation", "config": {"name": "conv4_block4_2_relu", "trainable": true, "dtype": "float32", "activation": "relu"}, "name": "conv4_block4_2_relu", "inbound_nodes": [[["conv4_block4_2_bn", 0, 0, {}]]]}, {"class_name": "Conv2D", "config": {"name": "conv4_block4_3_conv", "trainable": true, "dtype": "float32", "filters": 1024, "kernel_size": [1, 1], "strides": [1, 1], "padding": "valid", "data_format": "channels_last", "dilation_rate": [1, 1], "groups": 1, "activation": "linear", "use_bias": true, "kernel_initializer": {"class_name": "GlorotUniform", "config": {"seed": null}}, "bias_initializer": {"class_name": "Zeros", "config": {}}, "kernel_regularizer": null, "bias_regularizer": null, "activity_regularizer": null, "kernel_constraint": null, "bias_constraint": null}, "name": "conv4_block4_3_conv", "inbound_nodes": [[["conv4_block4_2_relu", 0, 0, {}]]]}, {"class_name": "BatchNormalization", "config": {"name": "conv4_block4_3_bn", "trainable": true, "dtype": "float32", "axis": [3], "momentum": 0.99, "epsilon": 1.001e-05, "center": true, "scale": true, "beta_initializer": {"class_name": "Zeros", "config": {}}, "gamma_initializer": {"class_name": "Ones", "config": {}}, "moving_mean_initializer": {"class_name": "Zeros", "config": {}}, "moving_variance_initializer": {"class_name": "Ones", "config": {}}, "beta_regularizer": null, "gamma_regularizer": null, "beta_constraint": null, "gamma_constraint": null}, "name": "conv4_block4_3_bn", "inbound_nodes": [[["conv4_block4_3_conv", 0, 0, {}]]]}, {"class_name": "Add", "config": {"name": "conv4_block4_add", "trainable": true, "dtype": "float32"}, "name": "conv4_block4_add", "inbound_nodes": [[["conv4_block3_out", 0, 0, {}], ["conv4_block4_3_bn", 0, 0, {}]]]}, {"class_name": "Activation", "config": {"name": "conv4_block4_out", "trainable": true, "dtype": "float32", "activation": "relu"}, "name": "conv4_block4_out", "inbound_nodes": [[["conv4_block4_add", 0, 0, {}]]]}, {"class_name": "Conv2D", "config": {"name": "conv4_block5_1_conv", "trainable": true, "dtype": "float32", "filters": 256, "kernel_size": [1, 1], "strides": [1, 1], "padding": "valid", "data_format": "channels_last", "dilation_rate": [1, 1], "groups": 1, "activation": "linear", "use_bias": true, "kernel_initializer": {"class_name": "GlorotUniform", "config": {"seed": null}}, "bias_initializer": {"class_name": "Zeros", "config": {}}, "kernel_regularizer": null, "bias_regularizer": null, "activity_regularizer": null, "kernel_constraint": null, "bias_constraint": null}, "name": "conv4_block5_1_conv", "inbound_nodes": [[["conv4_block4_out", 0, 0, {}]]]}, {"class_name": "BatchNormalization", "config": {"name": "conv4_block5_1_bn", "trainable": true, "dtype": "float32", "axis": [3], "momentum": 0.99, "epsilon": 1.001e-05, "center": true, "scale": true, "beta_initializer": {"class_name": "Zeros", "config": {}}, "gamma_initializer": {"class_name": "Ones", "config": {}}, "moving_mean_initializer": {"class_name": "Zeros", "config": {}}, "moving_variance_initializer": {"class_name": "Ones", "config": {}}, "beta_regularizer": null, "gamma_regularizer": null, "beta_constraint": null, "gamma_constraint": null}, "name": "conv4_block5_1_bn", "inbound_nodes": [[["conv4_block5_1_conv", 0, 0, {}]]]}, {"class_name": "Activation", "config": {"name": "conv4_block5_1_relu", "trainable": true, "dtype": "float32", "activation": "relu"}, "name": "conv4_block5_1_relu", "inbound_nodes": [[["conv4_block5_1_bn", 0, 0, {}]]]}, {"class_name": "Conv2D", "config": {"name": "conv4_block5_2_conv", "trainable": true, "dtype": "float32", "filters": 256, "kernel_size": [3, 3], "strides": [1, 1], "padding": "same", "data_format": "channels_last", "dilation_rate": [1, 1], "groups": 1, "activation": "linear", "use_bias": true, "kernel_initializer": {"class_name": "GlorotUniform", "config": {"seed": null}}, "bias_initializer": {"class_name": "Zeros", "config": {}}, "kernel_regularizer": null, "bias_regularizer": null, "activity_regularizer": null, "kernel_constraint": null, "bias_constraint": null}, "name": "conv4_block5_2_conv", "inbound_nodes": [[["conv4_block5_1_relu", 0, 0, {}]]]}, {"class_name": "BatchNormalization", "config": {"name": "conv4_block5_2_bn", "trainable": true, "dtype": "float32", "axis": [3], "momentum": 0.99, "epsilon": 1.001e-05, "center": true, "scale": true, "beta_initializer": {"class_name": "Zeros", "config": {}}, "gamma_initializer": {"class_name": "Ones", "config": {}}, "moving_mean_initializer": {"class_name": "Zeros", "config": {}}, "moving_variance_initializer": {"class_name": "Ones", "config": {}}, "beta_regularizer": null, "gamma_regularizer": null, "beta_constraint": null, "gamma_constraint": null}, "name": "conv4_block5_2_bn", "inbound_nodes": [[["conv4_block5_2_conv", 0, 0, {}]]]}, {"class_name": "Activation", "config": {"name": "conv4_block5_2_relu", "trainable": true, "dtype": "float32", "activation": "relu"}, "name": "conv4_block5_2_relu", "inbound_nodes": [[["conv4_block5_2_bn", 0, 0, {}]]]}, {"class_name": "Conv2D", "config": {"name": "conv4_block5_3_conv", "trainable": true, "dtype": "float32", "filters": 1024, "kernel_size": [1, 1], "strides": [1, 1], "padding": "valid", "data_format": "channels_last", "dilation_rate": [1, 1], "groups": 1, "activation": "linear", "use_bias": true, "kernel_initializer": {"class_name": "GlorotUniform", "config": {"seed": null}}, "bias_initializer": {"class_name": "Zeros", "config": {}}, "kernel_regularizer": null, "bias_regularizer": null, "activity_regularizer": null, "kernel_constraint": null, "bias_constraint": null}, "name": "conv4_block5_3_conv", "inbound_nodes": [[["conv4_block5_2_relu", 0, 0, {}]]]}, {"class_name": "BatchNormalization", "config": {"name": "conv4_block5_3_bn", "trainable": true, "dtype": "float32", "axis": [3], "momentum": 0.99, "epsilon": 1.001e-05, "center": true, "scale": true, "beta_initializer": {"class_name": "Zeros", "config": {}}, "gamma_initializer": {"class_name": "Ones", "config": {}}, "moving_mean_initializer": {"class_name": "Zeros", "config": {}}, "moving_variance_initializer": {"class_name": "Ones", "config": {}}, "beta_regularizer": null, "gamma_regularizer": null, "beta_constraint": null, "gamma_constraint": null}, "name": "conv4_block5_3_bn", "inbound_nodes": [[["conv4_block5_3_conv", 0, 0, {}]]]}, {"class_name": "Add", "config": {"name": "conv4_block5_add", "trainable": true, "dtype": "float32"}, "name": "conv4_block5_add", "inbound_nodes": [[["conv4_block4_out", 0, 0, {}], ["conv4_block5_3_bn", 0, 0, {}]]]}, {"class_name": "Activation", "config": {"name": "conv4_block5_out", "trainable": true, "dtype": "float32", "activation": "relu"}, "name": "conv4_block5_out", "inbound_nodes": [[["conv4_block5_add", 0, 0, {}]]]}, {"class_name": "Conv2D", "config": {"name": "conv4_block6_1_conv", "trainable": true, "dtype": "float32", "filters": 256, "kernel_size": [1, 1], "strides": [1, 1], "padding": "valid", "data_format": "channels_last", "dilation_rate": [1, 1], "groups": 1, "activation": "linear", "use_bias": true, "kernel_initializer": {"class_name": "GlorotUniform", "config": {"seed": null}}, "bias_initializer": {"class_name": "Zeros", "config": {}}, "kernel_regularizer": null, "bias_regularizer": null, "activity_regularizer": null, "kernel_constraint": null, "bias_constraint": null}, "name": "conv4_block6_1_conv", "inbound_nodes": [[["conv4_block5_out", 0, 0, {}]]]}, {"class_name": "BatchNormalization", "config": {"name": "conv4_block6_1_bn", "trainable": true, "dtype": "float32", "axis": [3], "momentum": 0.99, "epsilon": 1.001e-05, "center": true, "scale": true, "beta_initializer": {"class_name": "Zeros", "config": {}}, "gamma_initializer": {"class_name": "Ones", "config": {}}, "moving_mean_initializer": {"class_name": "Zeros", "config": {}}, "moving_variance_initializer": {"class_name": "Ones", "config": {}}, "beta_regularizer": null, "gamma_regularizer": null, "beta_constraint": null, "gamma_constraint": null}, "name": "conv4_block6_1_bn", "inbound_nodes": [[["conv4_block6_1_conv", 0, 0, {}]]]}, {"class_name": "Activation", "config": {"name": "conv4_block6_1_relu", "trainable": true, "dtype": "float32", "activation": "relu"}, "name": "conv4_block6_1_relu", "inbound_nodes": [[["conv4_block6_1_bn", 0, 0, {}]]]}, {"class_name": "Conv2D", "config": {"name": "conv4_block6_2_conv", "trainable": true, "dtype": "float32", "filters": 256, "kernel_size": [3, 3], "strides": [1, 1], "padding": "same", "data_format": "channels_last", "dilation_rate": [1, 1], "groups": 1, "activation": "linear", "use_bias": true, "kernel_initializer": {"class_name": "GlorotUniform", "config": {"seed": null}}, "bias_initializer": {"class_name": "Zeros", "config": {}}, "kernel_regularizer": null, "bias_regularizer": null, "activity_regularizer": null, "kernel_constraint": null, "bias_constraint": null}, "name": "conv4_block6_2_conv", "inbound_nodes": [[["conv4_block6_1_relu", 0, 0, {}]]]}, {"class_name": "BatchNormalization", "config": {"name": "conv4_block6_2_bn", "trainable": true, "dtype": "float32", "axis": [3], "momentum": 0.99, "epsilon": 1.001e-05, "center": true, "scale": true, "beta_initializer": {"class_name": "Zeros", "config": {}}, "gamma_initializer": {"class_name": "Ones", "config": {}}, "moving_mean_initializer": {"class_name": "Zeros", "config": {}}, "moving_variance_initializer": {"class_name": "Ones", "config": {}}, "beta_regularizer": null, "gamma_regularizer": null, "beta_constraint": null, "gamma_constraint": null}, "name": "conv4_block6_2_bn", "inbound_nodes": [[["conv4_block6_2_conv", 0, 0, {}]]]}, {"class_name": "Activation", "config": {"name": "conv4_block6_2_relu", "trainable": true, "dtype": "float32", "activation": "relu"}, "name": "conv4_block6_2_relu", "inbound_nodes": [[["conv4_block6_2_bn", 0, 0, {}]]]}, {"class_name": "Conv2D", "config": {"name": "conv4_block6_3_conv", "trainable": true, "dtype": "float32", "filters": 1024, "kernel_size": [1, 1], "strides": [1, 1], "padding": "valid", "data_format": "channels_last", "dilation_rate": [1, 1], "groups": 1, "activation": "linear", "use_bias": true, "kernel_initializer": {"class_name": "GlorotUniform", "config": {"seed": null}}, "bias_initializer": {"class_name": "Zeros", "config": {}}, "kernel_regularizer": null, "bias_regularizer": null, "activity_regularizer": null, "kernel_constraint": null, "bias_constraint": null}, "name": "conv4_block6_3_conv", "inbound_nodes": [[["conv4_block6_2_relu", 0, 0, {}]]]}, {"class_name": "BatchNormalization", "config": {"name": "conv4_block6_3_bn", "trainable": true, "dtype": "float32", "axis": [3], "momentum": 0.99, "epsilon": 1.001e-05, "center": true, "scale": true, "beta_initializer": {"class_name": "Zeros", "config": {}}, "gamma_initializer": {"class_name": "Ones", "config": {}}, "moving_mean_initializer": {"class_name": "Zeros", "config": {}}, "moving_variance_initializer": {"class_name": "Ones", "config": {}}, "beta_regularizer": null, "gamma_regularizer": null, "beta_constraint": null, "gamma_constraint": null}, "name": "conv4_block6_3_bn", "inbound_nodes": [[["conv4_block6_3_conv", 0, 0, {}]]]}, {"class_name": "Add", "config": {"name": "conv4_block6_add", "trainable": true, "dtype": "float32"}, "name": "conv4_block6_add", "inbound_nodes": [[["conv4_block5_out", 0, 0, {}], ["conv4_block6_3_bn", 0, 0, {}]]]}, {"class_name": "Activation", "config": {"name": "conv4_block6_out", "trainable": true, "dtype": "float32", "activation": "relu"}, "name": "conv4_block6_out", "inbound_nodes": [[["conv4_block6_add", 0, 0, {}]]]}, {"class_name": "Conv2D", "config": {"name": "conv5_block1_1_conv", "trainable": true, "dtype": "float32", "filters": 512, "kernel_size": [1, 1], "strides": [2, 2], "padding": "valid", "data_format": "channels_last", "dilation_rate": [1, 1], "groups": 1, "activation": "linear", "use_bias": true, "kernel_initializer": {"class_name": "GlorotUniform", "config": {"seed": null}}, "bias_initializer": {"class_name": "Zeros", "config": {}}, "kernel_regularizer": null, "bias_regularizer": null, "activity_regularizer": null, "kernel_constraint": null, "bias_constraint": null}, "name": "conv5_block1_1_conv", "inbound_nodes": [[["conv4_block6_out", 0, 0, {}]]]}, {"class_name": "BatchNormalization", "config": {"name": "conv5_block1_1_bn", "trainable": true, "dtype": "float32", "axis": [3], "momentum": 0.99, "epsilon": 1.001e-05, "center": true, "scale": true, "beta_initializer": {"class_name": "Zeros", "config": {}}, "gamma_initializer": {"class_name": "Ones", "config": {}}, "moving_mean_initializer": {"class_name": "Zeros", "config": {}}, "moving_variance_initializer": {"class_name": "Ones", "config": {}}, "beta_regularizer": null, "gamma_regularizer": null, "beta_constraint": null, "gamma_constraint": null}, "name": "conv5_block1_1_bn", "inbound_nodes": [[["conv5_block1_1_conv", 0, 0, {}]]]}, {"class_name": "Activation", "config": {"name": "conv5_block1_1_relu", "trainable": true, "dtype": "float32", "activation": "relu"}, "name": "conv5_block1_1_relu", "inbound_nodes": [[["conv5_block1_1_bn", 0, 0, {}]]]}, {"class_name": "Conv2D", "config": {"name": "conv5_block1_2_conv", "trainable": true, "dtype": "float32", "filters": 512, "kernel_size": [3, 3], "strides": [1, 1], "padding": "same", "data_format": "channels_last", "dilation_rate": [1, 1], "groups": 1, "activation": "linear", "use_bias": true, "kernel_initializer": {"class_name": "GlorotUniform", "config": {"seed": null}}, "bias_initializer": {"class_name": "Zeros", "config": {}}, "kernel_regularizer": null, "bias_regularizer": null, "activity_regularizer": null, "kernel_constraint": null, "bias_constraint": null}, "name": "conv5_block1_2_conv", "inbound_nodes": [[["conv5_block1_1_relu", 0, 0, {}]]]}, {"class_name": "BatchNormalization", "config": {"name": "conv5_block1_2_bn", "trainable": true, "dtype": "float32", "axis": [3], "momentum": 0.99, "epsilon": 1.001e-05, "center": true, "scale": true, "beta_initializer": {"class_name": "Zeros", "config": {}}, "gamma_initializer": {"class_name": "Ones", "config": {}}, "moving_mean_initializer": {"class_name": "Zeros", "config": {}}, "moving_variance_initializer": {"class_name": "Ones", "config": {}}, "beta_regularizer": null, "gamma_regularizer": null, "beta_constraint": null, "gamma_constraint": null}, "name": "conv5_block1_2_bn", "inbound_nodes": [[["conv5_block1_2_conv", 0, 0, {}]]]}, {"class_name": "Activation", "config": {"name": "conv5_block1_2_relu", "trainable": true, "dtype": "float32", "activation": "relu"}, "name": "conv5_block1_2_relu", "inbound_nodes": [[["conv5_block1_2_bn", 0, 0, {}]]]}, {"class_name": "Conv2D", "config": {"name": "conv5_block1_0_conv", "trainable": true, "dtype": "float32", "filters": 2048, "kernel_size": [1, 1], "strides": [2, 2], "padding": "valid", "data_format": "channels_last", "dilation_rate": [1, 1], "groups": 1, "activation": "linear", "use_bias": true, "kernel_initializer": {"class_name": "GlorotUniform", "config": {"seed": null}}, "bias_initializer": {"class_name": "Zeros", "config": {}}, "kernel_regularizer": null, "bias_regularizer": null, "activity_regularizer": null, "kernel_constraint": null, "bias_constraint": null}, "name": "conv5_block1_0_conv", "inbound_nodes": [[["conv4_block6_out", 0, 0, {}]]]}, {"class_name": "Conv2D", "config": {"name": "conv5_block1_3_conv", "trainable": true, "dtype": "float32", "filters": 2048, "kernel_size": [1, 1], "strides": [1, 1], "padding": "valid", "data_format": "channels_last", "dilation_rate": [1, 1], "groups": 1, "activation": "linear", "use_bias": true, "kernel_initializer": {"class_name": "GlorotUniform", "config": {"seed": null}}, "bias_initializer": {"class_name": "Zeros", "config": {}}, "kernel_regularizer": null, "bias_regularizer": null, "activity_regularizer": null, "kernel_constraint": null, "bias_constraint": null}, "name": "conv5_block1_3_conv", "inbound_nodes": [[["conv5_block1_2_relu", 0, 0, {}]]]}, {"class_name": "BatchNormalization", "config": {"name": "conv5_block1_0_bn", "trainable": true, "dtype": "float32", "axis": [3], "momentum": 0.99, "epsilon": 1.001e-05, "center": true, "scale": true, "beta_initializer": {"class_name": "Zeros", "config": {}}, "gamma_initializer": {"class_name": "Ones", "config": {}}, "moving_mean_initializer": {"class_name": "Zeros", "config": {}}, "moving_variance_initializer": {"class_name": "Ones", "config": {}}, "beta_regularizer": null, "gamma_regularizer": null, "beta_constraint": null, "gamma_constraint": null}, "name": "conv5_block1_0_bn", "inbound_nodes": [[["conv5_block1_0_conv", 0, 0, {}]]]}, {"class_name": "BatchNormalization", "config": {"name": "conv5_block1_3_bn", "trainable": true, "dtype": "float32", "axis": [3], "momentum": 0.99, "epsilon": 1.001e-05, "center": true, "scale": true, "beta_initializer": {"class_name": "Zeros", "config": {}}, "gamma_initializer": {"class_name": "Ones", "config": {}}, "moving_mean_initializer": {"class_name": "Zeros", "config": {}}, "moving_variance_initializer": {"class_name": "Ones", "config": {}}, "beta_regularizer": null, "gamma_regularizer": null, "beta_constraint": null, "gamma_constraint": null}, "name": "conv5_block1_3_bn", "inbound_nodes": [[["conv5_block1_3_conv", 0, 0, {}]]]}, {"class_name": "Add", "config": {"name": "conv5_block1_add", "trainable": true, "dtype": "float32"}, "name": "conv5_block1_add", "inbound_nodes": [[["conv5_block1_0_bn", 0, 0, {}], ["conv5_block1_3_bn", 0, 0, {}]]]}, {"class_name": "Activation", "config": {"name": "conv5_block1_out", "trainable": true, "dtype": "float32", "activation": "relu"}, "name": "conv5_block1_out", "inbound_nodes": [[["conv5_block1_add", 0, 0, {}]]]}, {"class_name": "Conv2D", "config": {"name": "conv5_block2_1_conv", "trainable": true, "dtype": "float32", "filters": 512, "kernel_size": [1, 1], "strides": [1, 1], "padding": "valid", "data_format": "channels_last", "dilation_rate": [1, 1], "groups": 1, "activation": "linear", "use_bias": true, "kernel_initializer": {"class_name": "GlorotUniform", "config": {"seed": null}}, "bias_initializer": {"class_name": "Zeros", "config": {}}, "kernel_regularizer": null, "bias_regularizer": null, "activity_regularizer": null, "kernel_constraint": null, "bias_constraint": null}, "name": "conv5_block2_1_conv", "inbound_nodes": [[["conv5_block1_out", 0, 0, {}]]]}, {"class_name": "BatchNormalization", "config": {"name": "conv5_block2_1_bn", "trainable": true, "dtype": "float32", "axis": [3], "momentum": 0.99, "epsilon": 1.001e-05, "center": true, "scale": true, "beta_initializer": {"class_name": "Zeros", "config": {}}, "gamma_initializer": {"class_name": "Ones", "config": {}}, "moving_mean_initializer": {"class_name": "Zeros", "config": {}}, "moving_variance_initializer": {"class_name": "Ones", "config": {}}, "beta_regularizer": null, "gamma_regularizer": null, "beta_constraint": null, "gamma_constraint": null}, "name": "conv5_block2_1_bn", "inbound_nodes": [[["conv5_block2_1_conv", 0, 0, {}]]]}, {"class_name": "Activation", "config": {"name": "conv5_block2_1_relu", "trainable": true, "dtype": "float32", "activation": "relu"}, "name": "conv5_block2_1_relu", "inbound_nodes": [[["conv5_block2_1_bn", 0, 0, {}]]]}, {"class_name": "Conv2D", "config": {"name": "conv5_block2_2_conv", "trainable": true, "dtype": "float32", "filters": 512, "kernel_size": [3, 3], "strides": [1, 1], "padding": "same", "data_format": "channels_last", "dilation_rate": [1, 1], "groups": 1, "activation": "linear", "use_bias": true, "kernel_initializer": {"class_name": "GlorotUniform", "config": {"seed": null}}, "bias_initializer": {"class_name": "Zeros", "config": {}}, "kernel_regularizer": null, "bias_regularizer": null, "activity_regularizer": null, "kernel_constraint": null, "bias_constraint": null}, "name": "conv5_block2_2_conv", "inbound_nodes": [[["conv5_block2_1_relu", 0, 0, {}]]]}, {"class_name": "BatchNormalization", "config": {"name": "conv5_block2_2_bn", "trainable": true, "dtype": "float32", "axis": [3], "momentum": 0.99, "epsilon": 1.001e-05, "center": true, "scale": true, "beta_initializer": {"class_name": "Zeros", "config": {}}, "gamma_initializer": {"class_name": "Ones", "config": {}}, "moving_mean_initializer": {"class_name": "Zeros", "config": {}}, "moving_variance_initializer": {"class_name": "Ones", "config": {}}, "beta_regularizer": null, "gamma_regularizer": null, "beta_constraint": null, "gamma_constraint": null}, "name": "conv5_block2_2_bn", "inbound_nodes": [[["conv5_block2_2_conv", 0, 0, {}]]]}, {"class_name": "Activation", "config": {"name": "conv5_block2_2_relu", "trainable": true, "dtype": "float32", "activation": "relu"}, "name": "conv5_block2_2_relu", "inbound_nodes": [[["conv5_block2_2_bn", 0, 0, {}]]]}, {"class_name": "Conv2D", "config": {"name": "conv5_block2_3_conv", "trainable": true, "dtype": "float32", "filters": 2048, "kernel_size": [1, 1], "strides": [1, 1], "padding": "valid", "data_format": "channels_last", "dilation_rate": [1, 1], "groups": 1, "activation": "linear", "use_bias": true, "kernel_initializer": {"class_name": "GlorotUniform", "config": {"seed": null}}, "bias_initializer": {"class_name": "Zeros", "config": {}}, "kernel_regularizer": null, "bias_regularizer": null, "activity_regularizer": null, "kernel_constraint": null, "bias_constraint": null}, "name": "conv5_block2_3_conv", "inbound_nodes": [[["conv5_block2_2_relu", 0, 0, {}]]]}, {"class_name": "BatchNormalization", "config": {"name": "conv5_block2_3_bn", "trainable": true, "dtype": "float32", "axis": [3], "momentum": 0.99, "epsilon": 1.001e-05, "center": true, "scale": true, "beta_initializer": {"class_name": "Zeros", "config": {}}, "gamma_initializer": {"class_name": "Ones", "config": {}}, "moving_mean_initializer": {"class_name": "Zeros", "config": {}}, "moving_variance_initializer": {"class_name": "Ones", "config": {}}, "beta_regularizer": null, "gamma_regularizer": null, "beta_constraint": null, "gamma_constraint": null}, "name": "conv5_block2_3_bn", "inbound_nodes": [[["conv5_block2_3_conv", 0, 0, {}]]]}, {"class_name": "Add", "config": {"name": "conv5_block2_add", "trainable": true, "dtype": "float32"}, "name": "conv5_block2_add", "inbound_nodes": [[["conv5_block1_out", 0, 0, {}], ["conv5_block2_3_bn", 0, 0, {}]]]}, {"class_name": "Activation", "config": {"name": "conv5_block2_out", "trainable": true, "dtype": "float32", "activation": "relu"}, "name": "conv5_block2_out", "inbound_nodes": [[["conv5_block2_add", 0, 0, {}]]]}, {"class_name": "Conv2D", "config": {"name": "conv5_block3_1_conv", "trainable": true, "dtype": "float32", "filters": 512, "kernel_size": [1, 1], "strides": [1, 1], "padding": "valid", "data_format": "channels_last", "dilation_rate": [1, 1], "groups": 1, "activation": "linear", "use_bias": true, "kernel_initializer": {"class_name": "GlorotUniform", "config": {"seed": null}}, "bias_initializer": {"class_name": "Zeros", "config": {}}, "kernel_regularizer": null, "bias_regularizer": null, "activity_regularizer": null, "kernel_constraint": null, "bias_constraint": null}, "name": "conv5_block3_1_conv", "inbound_nodes": [[["conv5_block2_out", 0, 0, {}]]]}, {"class_name": "BatchNormalization", "config": {"name": "conv5_block3_1_bn", "trainable": true, "dtype": "float32", "axis": [3], "momentum": 0.99, "epsilon": 1.001e-05, "center": true, "scale": true, "beta_initializer": {"class_name": "Zeros", "config": {}}, "gamma_initializer": {"class_name": "Ones", "config": {}}, "moving_mean_initializer": {"class_name": "Zeros", "config": {}}, "moving_variance_initializer": {"class_name": "Ones", "config": {}}, "beta_regularizer": null, "gamma_regularizer": null, "beta_constraint": null, "gamma_constraint": null}, "name": "conv5_block3_1_bn", "inbound_nodes": [[["conv5_block3_1_conv", 0, 0, {}]]]}, {"class_name": "Activation", "config": {"name": "conv5_block3_1_relu", "trainable": true, "dtype": "float32", "activation": "relu"}, "name": "conv5_block3_1_relu", "inbound_nodes": [[["conv5_block3_1_bn", 0, 0, {}]]]}, {"class_name": "Conv2D", "config": {"name": "conv5_block3_2_conv", "trainable": true, "dtype": "float32", "filters": 512, "kernel_size": [3, 3], "strides": [1, 1], "padding": "same", "data_format": "channels_last", "dilation_rate": [1, 1], "groups": 1, "activation": "linear", "use_bias": true, "kernel_initializer": {"class_name": "GlorotUniform", "config": {"seed": null}}, "bias_initializer": {"class_name": "Zeros", "config": {}}, "kernel_regularizer": null, "bias_regularizer": null, "activity_regularizer": null, "kernel_constraint": null, "bias_constraint": null}, "name": "conv5_block3_2_conv", "inbound_nodes": [[["conv5_block3_1_relu", 0, 0, {}]]]}, {"class_name": "BatchNormalization", "config": {"name": "conv5_block3_2_bn", "trainable": true, "dtype": "float32", "axis": [3], "momentum": 0.99, "epsilon": 1.001e-05, "center": true, "scale": true, "beta_initializer": {"class_name": "Zeros", "config": {}}, "gamma_initializer": {"class_name": "Ones", "config": {}}, "moving_mean_initializer": {"class_name": "Zeros", "config": {}}, "moving_variance_initializer": {"class_name": "Ones", "config": {}}, "beta_regularizer": null, "gamma_regularizer": null, "beta_constraint": null, "gamma_constraint": null}, "name": "conv5_block3_2_bn", "inbound_nodes": [[["conv5_block3_2_conv", 0, 0, {}]]]}, {"class_name": "Activation", "config": {"name": "conv5_block3_2_relu", "trainable": true, "dtype": "float32", "activation": "relu"}, "name": "conv5_block3_2_relu", "inbound_nodes": [[["conv5_block3_2_bn", 0, 0, {}]]]}, {"class_name": "Conv2D", "config": {"name": "conv5_block3_3_conv", "trainable": true, "dtype": "float32", "filters": 2048, "kernel_size": [1, 1], "strides": [1, 1], "padding": "valid", "data_format": "channels_last", "dilation_rate": [1, 1], "groups": 1, "activation": "linear", "use_bias": true, "kernel_initializer": {"class_name": "GlorotUniform", "config": {"seed": null}}, "bias_initializer": {"class_name": "Zeros", "config": {}}, "kernel_regularizer": null, "bias_regularizer": null, "activity_regularizer": null, "kernel_constraint": null, "bias_constraint": null}, "name": "conv5_block3_3_conv", "inbound_nodes": [[["conv5_block3_2_relu", 0, 0, {}]]]}, {"class_name": "BatchNormalization", "config": {"name": "conv5_block3_3_bn", "trainable": true, "dtype": "float32", "axis": [3], "momentum": 0.99, "epsilon": 1.001e-05, "center": true, "scale": true, "beta_initializer": {"class_name": "Zeros", "config": {}}, "gamma_initializer": {"class_name": "Ones", "config": {}}, "moving_mean_initializer": {"class_name": "Zeros", "config": {}}, "moving_variance_initializer": {"class_name": "Ones", "config": {}}, "beta_regularizer": null, "gamma_regularizer": null, "beta_constraint": null, "gamma_constraint": null}, "name": "conv5_block3_3_bn", "inbound_nodes": [[["conv5_block3_3_conv", 0, 0, {}]]]}, {"class_name": "Add", "config": {"name": "conv5_block3_add", "trainable": true, "dtype": "float32"}, "name": "conv5_block3_add", "inbound_nodes": [[["conv5_block2_out", 0, 0, {}], ["conv5_block3_3_bn", 0, 0, {}]]]}, {"class_name": "Activation", "config": {"name": "conv5_block3_out", "trainable": true, "dtype": "float32", "activation": "relu"}, "name": "conv5_block3_out", "inbound_nodes": [[["conv5_block3_add", 0, 0, {}]]]}, {"class_name": "Flatten", "config": {"name": "flatten", "trainable": true, "dtype": "float32", "data_format": "channels_last"}, "name": "flatten", "inbound_nodes": [[["conv5_block3_out", 0, 0, {}]]]}, {"class_name": "Dropout", "config": {"name": "dropout", "trainable": true, "dtype": "float32", "rate": 0.5, "noise_shape": null, "seed": null}, "name": "dropout", "inbound_nodes": [[["flatten", 0, 0, {}]]]}, {"class_name": "Dense", "config": {"name": "dense", "trainable": true, "dtype": "float32", "units": 512, "activation": "relu", "use_bias": true, "kernel_initializer": {"class_name": "GlorotUniform", "config": {"seed": null}}, "bias_initializer": {"class_name": "Zeros", "config": {}}, "kernel_regularizer": null, "bias_regularizer": null, "activity_regularizer": null, "kernel_constraint": null, "bias_constraint": null}, "name": "dense", "inbound_nodes": [[["dropout", 0, 0, {}]]]}, {"class_name": "BatchNormalization", "config": {"name": "batch_normalization", "trainable": true, "dtype": "float32", "axis": [1], "momentum": 0.99, "epsilon": 0.001, "center": true, "scale": true, "beta_initializer": {"class_name": "Zeros", "config": {}}, "gamma_initializer": {"class_name": "Ones", "config": {}}, "moving_mean_initializer": {"class_name": "Zeros", "config": {}}, "moving_variance_initializer": {"class_name": "Ones", "config": {}}, "beta_regularizer": null, "gamma_regularizer": null, "beta_constraint": null, "gamma_constraint": null}, "name": "batch_normalization", "inbound_nodes": [[["dense", 0, 0, {}]]]}, {"class_name": "Dropout", "config": {"name": "dropout_1", "trainable": true, "dtype": "float32", "rate": 0.5, "noise_shape": null, "seed": null}, "name": "dropout_1", "inbound_nodes": [[["batch_normalization", 0, 0, {}]]]}, {"class_name": "Dense", "config": {"name": "dense_1", "trainable": true, "dtype": "float32", "units": 512, "activation": "relu", "use_bias": true, "kernel_initializer": {"class_name": "GlorotUniform", "config": {"seed": null}}, "bias_initializer": {"class_name": "Zeros", "config": {}}, "kernel_regularizer": null, "bias_regularizer": null, "activity_regularizer": null, "kernel_constraint": null, "bias_constraint": null}, "name": "dense_1", "inbound_nodes": [[["dropout_1", 0, 0, {}]]]}, {"class_name": "BatchNormalization", "config": {"name": "batch_normalization_1", "trainable": true, "dtype": "float32", "axis": [1], "momentum": 0.99, "epsilon": 0.001, "center": true, "scale": true, "beta_initializer": {"class_name": "Zeros", "config": {}}, "gamma_initializer": {"class_name": "Ones", "config": {}}, "moving_mean_initializer": {"class_name": "Zeros", "config": {}}, "moving_variance_initializer": {"class_name": "Ones", "config": {}}, "beta_regularizer": null, "gamma_regularizer": null, "beta_constraint": null, "gamma_constraint": null}, "name": "batch_normalization_1", "inbound_nodes": [[["dense_1", 0, 0, {}]]]}, {"class_name": "Dense", "config": {"name": "predictions", "trainable": true, "dtype": "float32", "units": 7, "activation": "softmax", "use_bias": true, "kernel_initializer": {"class_name": "RandomUniform", "config": {"minval": -0.05, "maxval": 0.05, "seed": null}}, "bias_initializer": {"class_name": "RandomUniform", "config": {"minval": -0.05, "maxval": 0.05, "seed": null}}, "kernel_regularizer": null, "bias_regularizer": {"class_name": "L2", "config": {"l2": 0.009999999776482582}}, "activity_regularizer": null, "kernel_constraint": null, "bias_constraint": null}, "name": "predictions", "inbound_nodes": [[["batch_normalization_1", 0, 0, {}]]]}], "input_layers": [["input_1", 0, 0]], "output_layers": [["predictions", 0, 0]]}}, "training_config": {"loss": "categorical_crossentropy", "metrics": [[{"class_name": "MeanMetricWrapper", "config": {"name": "accuracy", "dtype": "float32", "fn": "categorical_accuracy"}}]], "weighted_metrics": null, "loss_weights": null, "optimizer_config": {"class_name": "RMSprop", "config": {"name": "RMSprop", "learning_rate": 2.499999936844688e-05, "decay": 0.0, "rho": 0.8999999761581421, "momentum": 0.0, "epsilon": 1e-07, "centered": false}}}}, "weightsManifest": [{"paths": ["group1-shard1of1.bin"], "weights": [{"name": "batch_normalization/gamma", "shape": [512], "dtype": "float32", "quantization": {"dtype": "uint8", "min": 0.9508625864982605, "scale": 0.0006301559653936648, "original_dtype": "float32"}}, {"name": "batch_normalization/beta", "shape": [512], "dtype": "float32", "quantization": {"dtype": "uint8", "min": -0.07069561937276055, "scale": 0.0005610763442282583, "original_dtype": "float32"}}, {"name": "batch_normalization/moving_mean", "shape": [512], "dtype": "float32", "quantization": {"dtype": "uint8", "min": 11.417831420898438, "scale": 0.669899076573989, "original_dtype": "float32"}}, {"name": "batch_normalization/moving_variance", "shape": [512], "dtype": "float32", "quantization": {"dtype": "uint8", "min": 655.1259765625, "scale": 101.21534543504902, "original_dtype": "float32"}}, {"name": "batch_normalization_1/gamma", "shape": [512], "dtype": "float32", "quantization": {"dtype": "uint8", "min": 0.8812381625175476, "scale": 0.000559848663853664, "original_dtype": "float32"}}, {"name": "batch_normalization_1/beta", "shape": [512], "dtype": "float32", "quantization": {"dtype": "uint8", "min": -0.22364146148457248, "scale": 0.001694253496095246, "original_dtype": "float32"}}, {"name": "batch_normalization_1/moving_mean", "shape": [512], "dtype": "float32", "quantization": {"dtype": "uint8", "min": 0.6313270926475525, "scale": 0.014057952516219194, "original_dtype": "float32"}}, {"name": "batch_normalization_1/moving_variance", "shape": [512], "dtype": "float32", "quantization": {"dtype": "uint8", "min": 1.2060909271240234, "scale": 0.29888288460525814, "original_dtype": "float32"}}, {"name": "conv1_bn/gamma", "shape": [64], "dtype": "float32", "quantization": {"dtype": "uint8", "min": 0.5075492262840271, "scale": 0.008606554713903689, "original_dtype": "float32"}}, {"name": "conv1_bn/beta", "shape": [64], "dtype": "float32", "quantization": {"dtype": "uint8", "min": -2.6377987160402183, "scale": 0.03517064954720291, "original_dtype": "float32"}}, {"name": "conv1_bn/moving_mean", "shape": [64], "dtype": "float32", "quantization": {"dtype": "uint8", "min": -49.23078284170113, "scale": 0.5409976136450674, "original_dtype": "float32"}}, {"name": "conv1_bn/moving_variance", "shape": [64], "dtype": "float32", "quantization": {"dtype": "uint8", "min": 157.4735107421875, "scale": 374.3675977519914, "original_dtype": "float32"}}, {"name": "conv1_conv/kernel", "shape": [7, 7, 3, 64], "dtype": "float32", "quantization": {"dtype": "uint8", "min": -0.666652785095514, "scale": 0.005376232137867048, "original_dtype": "float32"}}, {"name": "conv1_conv/bias", "shape": [64], "dtype": "float32", "quantization": {"dtype": "uint8", "min": -4.056948716478313e-05, "scale": 2.87726859324703e-07, "original_dtype": "float32"}}, {"name": "conv2_block1_0_bn/gamma", "shape": [256], "dtype": "float32", "quantization": {"dtype": "uint8", "min": -0.0, "scale": 0.01200374704443247, "original_dtype": "float32"}}, {"name": "conv2_block1_0_bn/beta", "shape": [256], "dtype": "float32", "quantization": {"dtype": "uint8", "min": -1.106049223507152, "scale": 0.010147240582634422, "original_dtype": "float32"}}, {"name": "conv2_block1_0_bn/moving_mean", "shape": [256], "dtype": "float32", "quantization": {"dtype": "uint8", "min": -7.200146600311879, "scale": 0.06792591132369696, "original_dtype": "float32"}}, {"name": "conv2_block1_0_bn/moving_variance", "shape": [256], "dtype": "float32", "quantization": {"dtype": "uint8", "min": 1.0221526736131636e-06, "scale": 0.027034806001682798, "original_dtype": "float32"}}, {"name": "conv2_block1_0_conv/kernel", "shape": [1, 1, 64, 256], "dtype": "float32", "quantization": {"dtype": "uint8", "min": -0.7625929292510537, "scale": 0.00651788828419704, "original_dtype": "float32"}}, {"name": "conv2_block1_0_conv/bias", "shape": [256], "dtype": "float32", "quantization": {"dtype": "uint8", "min": -0.0014986002105562125, "scale": 1.0057719533934312e-05, "original_dtype": "float32"}}, {"name": "conv2_block1_1_bn/gamma", "shape": [64], "dtype": "float32", "quantization": {"dtype": "uint8", "min": 0.5171963572502136, "scale": 0.006025653960658055, "original_dtype": "float32"}}, {"name": "conv2_block1_1_bn/beta", "shape": [64], "dtype": "float32", "quantization": {"dtype": "uint8", "min": -2.4117733917984308, "scale": 0.023415275648528456, "original_dtype": "float32"}}, {"name": "conv2_block1_1_bn/moving_mean", "shape": [64], "dtype": "float32", "quantization": {"dtype": "uint8", "min": -4.948044030806598, "scale": 0.04803926243501551, "original_dtype": "float32"}}, {"name": "conv2_block1_1_bn/moving_variance", "shape": [64], "dtype": "float32", "quantization": {"dtype": "uint8", "min": 0.10292641818523407, "scale": 0.03505292341989629, "original_dtype": "float32"}}, {"name": "conv2_block1_1_conv/kernel", "shape": [1, 1, 64, 64], "dtype": "float32", "quantization": {"dtype": "uint8", "min": -0.7183054311602722, "scale": 0.004379911165611416, "original_dtype": "float32"}}, {"name": "conv2_block1_1_conv/bias", "shape": [64], "dtype": "float32", "quantization": {"dtype": "uint8", "min": -0.001368881877530001, "scale": 9.848071061366914e-06, "original_dtype": "float32"}}, {"name": "conv2_block1_2_bn/gamma", "shape": [64], "dtype": "float32", "quantization": {"dtype": "uint8", "min": 0.4178113639354706, "scale": 0.00826527289315766, "original_dtype": "float32"}}, {"name": "conv2_block1_2_bn/beta", "shape": [64], "dtype": "float32", "quantization": {"dtype": "uint8", "min": -2.3100393407485065, "scale": 0.03208387973261814, "original_dtype": "float32"}}, {"name": "conv2_block1_2_bn/moving_mean", "shape": [64], "dtype": "float32", "quantization": {"dtype": "uint8", "min": -3.6508475172753427, "scale": 0.025710193783629175, "original_dtype": "float32"}}, {"name": "conv2_block1_2_bn/moving_variance", "shape": [64], "dtype": "float32", "quantization": {"dtype": "uint8", "min": 0.33010539412498474, "scale": 0.07755546347767699, "original_dtype": "float32"}}, {"name": "conv2_block1_2_conv/kernel", "shape": [3, 3, 64, 64], "dtype": "float32", "quantization": {"dtype": "uint8", "min": -0.39815228686613197, "scale": 0.003016305203531303, "original_dtype": "float32"}}, {"name": "conv2_block1_2_conv/bias", "shape": [64], "dtype": "float32", "quantization": {"dtype": "uint8", "min": -0.00090368955473726, "scale": 7.858170041193565e-06, "original_dtype": "float32"}}, {"name": "conv2_block1_3_bn/gamma", "shape": [256], "dtype": "float32", "quantization": {"dtype": "uint8", "min": 0.0026334463618695736, "scale": 0.011070897088696558, "original_dtype": "float32"}}, {"name": "conv2_block1_3_bn/beta", "shape": [256], "dtype": "float32", "quantization": {"dtype": "uint8", "min": -1.106049223507152, "scale": 0.010147240582634422, "original_dtype": "float32"}}, {"name": "conv2_block1_3_bn/moving_mean", "shape": [256], "dtype": "float32", "quantization": {"dtype": "uint8", "min": -2.048354834201289, "scale": 0.01528623010597977, "original_dtype": "float32"}}, {"name": "conv2_block1_3_bn/moving_variance", "shape": [256], "dtype": "float32", "quantization": {"dtype": "uint8", "min": 7.530944117206673e-07, "scale": 0.008253603207170352, "original_dtype": "float32"}}, {"name": "conv2_block1_3_conv/kernel", "shape": [1, 1, 64, 256], "dtype": "float32", "quantization": {"dtype": "uint8", "min": -0.4086643906200633, "scale": 0.0029613361639135023, "original_dtype": "float32"}}, {"name": "conv2_block1_3_conv/bias", "shape": [256], "dtype": "float32", "quantization": {"dtype": "uint8", "min": -0.0018343851116358065, "scale": 1.3689441131610496e-05, "original_dtype": "float32"}}, {"name": "conv2_block2_1_bn/gamma", "shape": [64], "dtype": "float32", "quantization": {"dtype": "uint8", "min": 0.7371701598167419, "scale": 0.004707348346710205, "original_dtype": "float32"}}, {"name": "conv2_block2_1_bn/beta", "shape": [64], "dtype": "float32", "quantization": {"dtype": "uint8", "min": -1.6794257313597436, "scale": 0.012820043750837737, "original_dtype": "float32"}}, {"name": "conv2_block2_1_bn/moving_mean", "shape": [64], "dtype": "float32", "quantization": {"dtype": "uint8", "min": -2.8128665461259725, "scale": 0.015714338246513814, "original_dtype": "float32"}}, {"name": "conv2_block2_1_bn/moving_variance", "shape": [64], "dtype": "float32", "quantization": {"dtype": "uint8", "min": 0.36778268218040466, "scale": 0.011481167872746785, "original_dtype": "float32"}}, {"name": "conv2_block2_1_conv/kernel", "shape": [1, 1, 256, 64], "dtype": "float32", "quantization": {"dtype": "uint8", "min": -0.3050528966328677, "scale": 0.0021038130802266738, "original_dtype": "float32"}}, {"name": "conv2_block2_1_conv/bias", "shape": [64], "dtype": "float32", "quantization": {"dtype": "uint8", "min": -0.0012367482105379596, "scale": 9.161097855836738e-06, "original_dtype": "float32"}}, {"name": "conv2_block2_2_bn/gamma", "shape": [64], "dtype": "float32", "quantization": {"dtype": "uint8", "min": 0.6133617162704468, "scale": 0.003915623122570561, "original_dtype": "float32"}}, {"name": "conv2_block2_2_bn/beta", "shape": [64], "dtype": "float32", "quantization": {"dtype": "uint8", "min": -2.0115620192359476, "scale": 0.017192837771247416, "original_dtype": "float32"}}, {"name": "conv2_block2_2_bn/moving_mean", "shape": [64], "dtype": "float32", "quantization": {"dtype": "uint8", "min": -1.9777554042199077, "scale": 0.011565821077309402, "original_dtype": "float32"}}, {"name": "conv2_block2_2_bn/moving_variance", "shape": [64], "dtype": "float32", "quantization": {"dtype": "uint8", "min": 0.42511236667633057, "scale": 0.00433653148950315, "original_dtype": "float32"}}, {"name": "conv2_block2_2_conv/kernel", "shape": [3, 3, 64, 64], "dtype": "float32", "quantization": {"dtype": "uint8", "min": -0.2624751206706552, "scale": 0.0023646407267626595, "original_dtype": "float32"}}, {"name": "conv2_block2_2_conv/bias", "shape": [64], "dtype": "float32", "quantization": {"dtype": "uint8", "min": -0.0019824310657842194, "scale": 1.139328198726563e-05, "original_dtype": "float32"}}, {"name": "conv2_block2_3_bn/gamma", "shape": [256], "dtype": "float32", "quantization": {"dtype": "uint8", "min": -0.008396664736609834, "scale": 0.008396664736609834, "original_dtype": "float32"}}, {"name": "conv2_block2_3_bn/beta", "shape": [256], "dtype": "float32", "quantization": {"dtype": "uint8", "min": -1.6784381829056085, "scale": 0.011819987203560624, "original_dtype": "float32"}}, {"name": "conv2_block2_3_bn/moving_mean", "shape": [256], "dtype": "float32", "quantization": {"dtype": "uint8", "min": -1.075724444436092, "scale": 0.008088153717564602, "original_dtype": "float32"}}, {"name": "conv2_block2_3_bn/moving_variance", "shape": [256], "dtype": "float32", "quantization": {"dtype": "uint8", "min": 0.008139683865010738, "scale": 0.0008778717624498348, "original_dtype": "float32"}}, {"name": "conv2_block2_3_conv/kernel", "shape": [1, 1, 64, 256], "dtype": "float32", "quantization": {"dtype": "uint8", "min": -0.25775960181273666, "scale": 0.002130244643080468, "original_dtype": "float32"}}, {"name": "conv2_block2_3_conv/bias", "shape": [256], "dtype": "float32", "quantization": {"dtype": "uint8", "min": -0.0015005075728849453, "scale": 1.190879026099163e-05, "original_dtype": "float32"}}, {"name": "conv2_block3_1_bn/gamma", "shape": [64], "dtype": "float32", "quantization": {"dtype": "uint8", "min": 0.5740686058998108, "scale": 0.00431290397457048, "original_dtype": "float32"}}, {"name": "conv2_block3_1_bn/beta", "shape": [64], "dtype": "float32", "quantization": {"dtype": "uint8", "min": -1.8741474591049494, "scale": 0.011640667447856828, "original_dtype": "float32"}}, {"name": "conv2_block3_1_bn/moving_mean", "shape": [64], "dtype": "float32", "quantization": {"dtype": "uint8", "min": -1.983679108058705, "scale": 0.015377357426811667, "original_dtype": "float32"}}, {"name": "conv2_block3_1_bn/moving_variance", "shape": [64], "dtype": "float32", "quantization": {"dtype": "uint8", "min": 2.1086395918246126e-06, "scale": 0.01321720624037773, "original_dtype": "float32"}}, {"name": "conv2_block3_1_conv/kernel", "shape": [1, 1, 256, 64], "dtype": "float32", "quantization": {"dtype": "uint8", "min": -0.2172470948275398, "scale": 0.001856812776303759, "original_dtype": "float32"}}, {"name": "conv2_block3_1_conv/bias", "shape": [64], "dtype": "float32", "quantization": {"dtype": "uint8", "min": -0.000795242726328034, "scale": 5.934647211403239e-06, "original_dtype": "float32"}}, {"name": "conv2_block3_2_bn/gamma", "shape": [64], "dtype": "float32", "quantization": {"dtype": "uint8", "min": 0.774946928024292, "scale": 0.003370056900323606, "original_dtype": "float32"}}, {"name": "conv2_block3_2_bn/beta", "shape": [64], "dtype": "float32", "quantization": {"dtype": "uint8", "min": -2.2138116443858427, "scale": 0.01615920908310834, "original_dtype": "float32"}}, {"name": "conv2_block3_2_bn/moving_mean", "shape": [64], "dtype": "float32", "quantization": {"dtype": "uint8", "min": -1.7609294919406666, "scale": 0.00936664623372695, "original_dtype": "float32"}}, {"name": "conv2_block3_2_bn/moving_variance", "shape": [64], "dtype": "float32", "quantization": {"dtype": "uint8", "min": 0.2832114100456238, "scale": 0.003158318528942033, "original_dtype": "float32"}}, {"name": "conv2_block3_2_conv/kernel", "shape": [3, 3, 64, 64], "dtype": "float32", "quantization": {"dtype": "uint8", "min": -0.22401178864871754, "scale": 0.0016970590049145268, "original_dtype": "float32"}}, {"name": "conv2_block3_2_conv/bias", "shape": [64], "dtype": "float32", "quantization": {"dtype": "uint8", "min": -0.0010641827736524684, "scale": 7.441837577989289e-06, "original_dtype": "float32"}}, {"name": "conv2_block3_3_bn/gamma", "shape": [256], "dtype": "float32", "quantization": {"dtype": "uint8", "min": -0.025406971267041036, "scale": 0.008468990422347012, "original_dtype": "float32"}}, {"name": "conv2_block3_3_bn/beta", "shape": [256], "dtype": "float32", "quantization": {"dtype": "uint8", "min": -1.5597749172472486, "scale": 0.01228169226178936, "original_dtype": "float32"}}, {"name": "conv2_block3_3_bn/moving_mean", "shape": [256], "dtype": "float32", "quantization": {"dtype": "uint8", "min": -1.0814191860311173, "scale": 0.00879202590269201, "original_dtype": "float32"}}, {"name": "conv2_block3_3_bn/moving_variance", "shape": [256], "dtype": "float32", "quantization": {"dtype": "uint8", "min": 0.0172367412596941, "scale": 0.0011977851317793715, "original_dtype": "float32"}}, {"name": "conv2_block3_3_conv/kernel", "shape": [1, 1, 64, 256], "dtype": "float32", "quantization": {"dtype": "uint8", "min": -0.274345840659796, "scale": 0.002427839297874301, "original_dtype": "float32"}}, {"name": "conv2_block3_3_conv/bias", "shape": [256], "dtype": "float32", "quantization": {"dtype": "uint8", "min": -0.0009204138077192885, "scale": 6.261318419859105e-06, "original_dtype": "float32"}}, {"name": "conv3_block1_0_bn/gamma", "shape": [512], "dtype": "float32", "quantization": {"dtype": "uint8", "min": -0.009964919530366566, "scale": 0.009964919530366566, "original_dtype": "float32"}}, {"name": "conv3_block1_0_bn/beta", "shape": [512], "dtype": "float32", "quantization": {"dtype": "uint8", "min": -1.5296098671707452, "scale": 0.010925784765505323, "original_dtype": "float32"}}, {"name": "conv3_block1_0_bn/moving_mean", "shape": [512], "dtype": "float32", "quantization": {"dtype": "uint8", "min": -2.9232488893995097, "scale": 0.02283788194843367, "original_dtype": "float32"}}, {"name": "conv3_block1_0_bn/moving_variance", "shape": [512], "dtype": "float32", "quantization": {"dtype": "uint8", "min": 0.227961003780365, "scale": 0.016472227666892256, "original_dtype": "float32"}}, {"name": "conv3_block1_0_conv/kernel", "shape": [1, 1, 256, 512], "dtype": "float32", "quantization": {"dtype": "uint8", "min": -0.4757496039072672, "scale": 0.004574515422185262, "original_dtype": "float32"}}, {"name": "conv3_block1_0_conv/bias", "shape": [512], "dtype": "float32", "quantization": {"dtype": "uint8", "min": -0.0002791846670922549, "scale": 2.2697940414004464e-06, "original_dtype": "float32"}}, {"name": "conv3_block1_1_bn/gamma", "shape": [128], "dtype": "float32", "quantization": {"dtype": "uint8", "min": 0.5687016844749451, "scale": 0.004066101943745333, "original_dtype": "float32"}}, {"name": "conv3_block1_1_bn/beta", "shape": [128], "dtype": "float32", "quantization": {"dtype": "uint8", "min": -1.5465662096060957, "scale": 0.011628317365459367, "original_dtype": "float32"}}, {"name": "conv3_block1_1_bn/moving_mean", "shape": [128], "dtype": "float32", "quantization": {"dtype": "uint8", "min": -3.1343771443647497, "scale": 0.01971306380103616, "original_dtype": "float32"}}, {"name": "conv3_block1_1_bn/moving_variance", "shape": [128], "dtype": "float32", "quantization": {"dtype": "uint8", "min": 0.3260902464389801, "scale": 0.010488389870699714, "original_dtype": "float32"}}, {"name": "conv3_block1_1_conv/kernel", "shape": [1, 1, 256, 128], "dtype": "float32", "quantization": {"dtype": "uint8", "min": -0.35485772116511477, "scale": 0.002668103166654998, "original_dtype": "float32"}}, {"name": "conv3_block1_1_conv/bias", "shape": [128], "dtype": "float32", "quantization": {"dtype": "uint8", "min": -0.00027527550381480477, "scale": 2.4578169983464712e-06, "original_dtype": "float32"}}, {"name": "conv3_block1_2_bn/gamma", "shape": [128], "dtype": "float32", "quantization": {"dtype": "uint8", "min": 0.6083266139030457, "scale": 0.003979919237249037, "original_dtype": "float32"}}, {"name": "conv3_block1_2_bn/beta", "shape": [128], "dtype": "float32", "quantization": {"dtype": "uint8", "min": -2.782976225310681, "scale": 0.017725963218539368, "original_dtype": "float32"}}, {"name": "conv3_block1_2_bn/moving_mean", "shape": [128], "dtype": "float32", "quantization": {"dtype": "uint8", "min": -3.588254591997932, "scale": 0.024918434666652306, "original_dtype": "float32"}}, {"name": "conv3_block1_2_bn/moving_variance", "shape": [128], "dtype": "float32", "quantization": {"dtype": "uint8", "min": 0.6898416876792908, "scale": 0.01371841828028361, "original_dtype": "float32"}}, {"name": "conv3_block1_2_conv/kernel", "shape": [3, 3, 128, 128], "dtype": "float32", "quantization": {"dtype": "uint8", "min": -0.40950146235671697, "scale": 0.0031259653615016564, "original_dtype": "float32"}}, {"name": "conv3_block1_2_conv/bias", "shape": [128], "dtype": "float32", "quantization": {"dtype": "uint8", "min": -0.0003521476255948929, "scale": 3.593343118315234e-06, "original_dtype": "float32"}}, {"name": "conv3_block1_3_bn/gamma", "shape": [512], "dtype": "float32", "quantization": {"dtype": "uint8", "min": -0.03245423944557414, "scale": 0.010818079815191381, "original_dtype": "float32"}}, {"name": "conv3_block1_3_bn/beta", "shape": [512], "dtype": "float32", "quantization": {"dtype": "uint8", "min": -1.5296098671707452, "scale": 0.010925784765505323, "original_dtype": "float32"}}, {"name": "conv3_block1_3_bn/moving_mean", "shape": [512], "dtype": "float32", "quantization": {"dtype": "uint8", "min": -1.0953755154329188, "scale": 0.008298299359340294, "original_dtype": "float32"}}, {"name": "conv3_block1_3_bn/moving_variance", "shape": [512], "dtype": "float32", "quantization": {"dtype": "uint8", "min": 0.019208112731575966, "scale": 0.0020588700312609764, "original_dtype": "float32"}}, {"name": "conv3_block1_3_conv/kernel", "shape": [1, 1, 128, 512], "dtype": "float32", "quantization": {"dtype": "uint8", "min": -0.3657682488946354, "scale": 0.003126224349526798, "original_dtype": "float32"}}, {"name": "conv3_block1_3_conv/bias", "shape": [512], "dtype": "float32", "quantization": {"dtype": "uint8", "min": -0.0006221570097384791, "scale": 4.785823151834455e-06, "original_dtype": "float32"}}, {"name": "conv3_block2_1_bn/gamma", "shape": [128], "dtype": "float32", "quantization": {"dtype": "uint8", "min": 0.5781978964805603, "scale": 0.003283392448051303, "original_dtype": "float32"}}, {"name": "conv3_block2_1_bn/beta", "shape": [128], "dtype": "float32", "quantization": {"dtype": "uint8", "min": -4.3455405800950295, "scale": 0.019228055664137298, "original_dtype": "float32"}}, {"name": "conv3_block2_1_bn/moving_mean", "shape": [128], "dtype": "float32", "quantization": {"dtype": "uint8", "min": -2.3862143507190776, "scale": 0.018215376723046395, "original_dtype": "float32"}}, {"name": "conv3_block2_1_bn/moving_variance", "shape": [128], "dtype": "float32", "quantization": {"dtype": "uint8", "min": 4.666403583541978e-06, "scale": 0.01379025723670958, "original_dtype": "float32"}}, {"name": "conv3_block2_1_conv/kernel", "shape": [1, 1, 512, 128], "dtype": "float32", "quantization": {"dtype": "uint8", "min": -0.18966060479482014, "scale": 0.001593786594914455, "original_dtype": "float32"}}, {"name": "conv3_block2_1_conv/bias", "shape": [128], "dtype": "float32", "quantization": {"dtype": "uint8", "min": -0.0003659509303842617, "scale": 2.559097415274557e-06, "original_dtype": "float32"}}, {"name": "conv3_block2_2_bn/gamma", "shape": [128], "dtype": "float32", "quantization": {"dtype": "uint8", "min": 0.5086826682090759, "scale": 0.005027709521499334, "original_dtype": "float32"}}, {"name": "conv3_block2_2_bn/beta", "shape": [128], "dtype": "float32", "quantization": {"dtype": "uint8", "min": -3.849606556050918, "scale": 0.020261087137110095, "original_dtype": "float32"}}, {"name": "conv3_block2_2_bn/moving_mean", "shape": [128], "dtype": "float32", "quantization": {"dtype": "uint8", "min": -1.7130407501669491, "scale": 0.009959539245156681, "original_dtype": "float32"}}, {"name": "conv3_block2_2_bn/moving_variance", "shape": [128], "dtype": "float32", "quantization": {"dtype": "uint8", "min": 0.3186303675174713, "scale": 0.004340148322722491, "original_dtype": "float32"}}, {"name": "conv3_block2_2_conv/kernel", "shape": [3, 3, 128, 128], "dtype": "float32", "quantization": {"dtype": "uint8", "min": -0.2070805154010361, "scale": 0.0016305552393782372, "original_dtype": "float32"}}, {"name": "conv3_block2_2_conv/bias", "shape": [128], "dtype": "float32", "quantization": {"dtype": "uint8", "min": -0.0005343732446906905, "scale": 3.987860035005154e-06, "original_dtype": "float32"}}, {"name": "conv3_block2_3_bn/gamma", "shape": [512], "dtype": "float32", "quantization": {"dtype": "uint8", "min": -0.08856535746770747, "scale": 0.008856535746770746, "original_dtype": "float32"}}, {"name": "conv3_block2_3_bn/beta", "shape": [512], "dtype": "float32", "quantization": {"dtype": "uint8", "min": -1.533275312535903, "scale": 0.01064774522594377, "original_dtype": "float32"}}, {"name": "conv3_block2_3_bn/moving_mean", "shape": [512], "dtype": "float32", "quantization": {"dtype": "uint8", "min": -0.7526670502681359, "scale": 0.005051456713208965, "original_dtype": "float32"}}, {"name": "conv3_block2_3_bn/moving_variance", "shape": [512], "dtype": "float32", "quantization": {"dtype": "uint8", "min": 0.012089147232472897, "scale": 0.000632922734846087, "original_dtype": "float32"}}, {"name": "conv3_block2_3_conv/kernel", "shape": [1, 1, 128, 512], "dtype": "float32", "quantization": {"dtype": "uint8", "min": -0.3707755109843086, "scale": 0.0028742287673202216, "original_dtype": "float32"}}, {"name": "conv3_block2_3_conv/bias", "shape": [512], "dtype": "float32", "quantization": {"dtype": "uint8", "min": -0.0009897289174499318, "scale": 6.7328497785709655e-06, "original_dtype": "float32"}}, {"name": "conv3_block3_1_bn/gamma", "shape": [128], "dtype": "float32", "quantization": {"dtype": "uint8", "min": 0.40455397963523865, "scale": 0.005127670367558798, "original_dtype": "float32"}}, {"name": "conv3_block3_1_bn/beta", "shape": [128], "dtype": "float32", "quantization": {"dtype": "uint8", "min": -2.697658733293122, "scale": 0.018227423873602176, "original_dtype": "float32"}}, {"name": "conv3_block3_1_bn/moving_mean", "shape": [128], "dtype": "float32", "quantization": {"dtype": "uint8", "min": -2.2940286290411858, "scale": 0.016155131190430886, "original_dtype": "float32"}}, {"name": "conv3_block3_1_bn/moving_variance", "shape": [128], "dtype": "float32", "quantization": {"dtype": "uint8", "min": 0.3280447721481323, "scale": 0.05631958129359227, "original_dtype": "float32"}}, {"name": "conv3_block3_1_conv/kernel", "shape": [1, 1, 512, 128], "dtype": "float32", "quantization": {"dtype": "uint8", "min": -0.3349665641784668, "scale": 0.002964305877685547, "original_dtype": "float32"}}, {"name": "conv3_block3_1_conv/bias", "shape": [128], "dtype": "float32", "quantization": {"dtype": "uint8", "min": -0.00015996285262243713, "scale": 1.5996285262243712e-06, "original_dtype": "float32"}}, {"name": "conv3_block3_2_bn/gamma", "shape": [128], "dtype": "float32", "quantization": {"dtype": "uint8", "min": 0.4512281119823456, "scale": 0.006839586823594337, "original_dtype": "float32"}}, {"name": "conv3_block3_2_bn/beta", "shape": [128], "dtype": "float32", "quantization": {"dtype": "uint8", "min": -1.589733569762286, "scale": 0.008411288728900984, "original_dtype": "float32"}}, {"name": "conv3_block3_2_bn/moving_mean", "shape": [128], "dtype": "float32", "quantization": {"dtype": "uint8", "min": -1.540594679701562, "scale": 0.013633581236297009, "original_dtype": "float32"}}, {"name": "conv3_block3_2_bn/moving_variance", "shape": [128], "dtype": "float32", "quantization": {"dtype": "uint8", "min": 0.23406971991062164, "scale": 0.010657975661988351, "original_dtype": "float32"}}, {"name": "conv3_block3_2_conv/kernel", "shape": [3, 3, 128, 128], "dtype": "float32", "quantization": {"dtype": "uint8", "min": -0.33064398344825296, "scale": 0.002688162467058967, "original_dtype": "float32"}}, {"name": "conv3_block3_2_conv/bias", "shape": [128], "dtype": "float32", "quantization": {"dtype": "uint8", "min": -0.0003743433147011434, "scale": 2.772913442230692e-06, "original_dtype": "float32"}}, {"name": "conv3_block3_3_bn/gamma", "shape": [512], "dtype": "float32", "quantization": {"dtype": "uint8", "min": -0.024001351218013202, "scale": 0.012000675609006601, "original_dtype": "float32"}}, {"name": "conv3_block3_3_bn/beta", "shape": [512], "dtype": "float32", "quantization": {"dtype": "uint8", "min": -2.3995436163509596, "scale": 0.01126546298756319, "original_dtype": "float32"}}, {"name": "conv3_block3_3_bn/moving_mean", "shape": [512], "dtype": "float32", "quantization": {"dtype": "uint8", "min": -0.5719258055967443, "scale": 0.004612304883844712, "original_dtype": "float32"}}, {"name": "conv3_block3_3_bn/moving_variance", "shape": [512], "dtype": "float32", "quantization": {"dtype": "uint8", "min": 0.009044219739735126, "scale": 0.0011831077107904004, "original_dtype": "float32"}}, {"name": "conv3_block3_3_conv/kernel", "shape": [1, 1, 128, 512], "dtype": "float32", "quantization": {"dtype": "uint8", "min": -0.29037054040852717, "scale": 0.0021832371459287758, "original_dtype": "float32"}}, {"name": "conv3_block3_3_conv/bias", "shape": [512], "dtype": "float32", "quantization": {"dtype": "uint8", "min": -0.0008474021547419183, "scale": 6.323896677178495e-06, "original_dtype": "float32"}}, {"name": "conv3_block4_1_bn/gamma", "shape": [128], "dtype": "float32", "quantization": {"dtype": "uint8", "min": 0.705500066280365, "scale": 0.006727540493011474, "original_dtype": "float32"}}, {"name": "conv3_block4_1_bn/beta", "shape": [128], "dtype": "float32", "quantization": {"dtype": "uint8", "min": -2.6110956332262822, "scale": 0.013321916496052461, "original_dtype": "float32"}}, {"name": "conv3_block4_1_bn/moving_mean", "shape": [128], "dtype": "float32", "quantization": {"dtype": "uint8", "min": -3.7644047755821077, "scale": 0.021388663497625613, "original_dtype": "float32"}}, {"name": "conv3_block4_1_bn/moving_variance", "shape": [128], "dtype": "float32", "quantization": {"dtype": "uint8", "min": 0.7482396960258484, "scale": 0.009985562165578206, "original_dtype": "float32"}}, {"name": "conv3_block4_1_conv/kernel", "shape": [1, 1, 512, 128], "dtype": "float32", "quantization": {"dtype": "uint8", "min": -0.3199857189374811, "scale": 0.002734920674679326, "original_dtype": "float32"}}, {"name": "conv3_block4_1_conv/bias", "shape": [128], "dtype": "float32", "quantization": {"dtype": "uint8", "min": -0.0003710391020457096, "scale": 2.473594013638064e-06, "original_dtype": "float32"}}, {"name": "conv3_block4_2_bn/gamma", "shape": [128], "dtype": "float32", "quantization": {"dtype": "uint8", "min": 0.6898927092552185, "scale": 0.003953438412909414, "original_dtype": "float32"}}, {"name": "conv3_block4_2_bn/beta", "shape": [128], "dtype": "float32", "quantization": {"dtype": "uint8", "min": -1.3690709815305824, "scale": 0.011701461380603267, "original_dtype": "float32"}}, {"name": "conv3_block4_2_bn/moving_mean", "shape": [128], "dtype": "float32", "quantization": {"dtype": "uint8", "min": -3.455274823132683, "scale": 0.018576746360928403, "original_dtype": "float32"}}, {"name": "conv3_block4_2_bn/moving_variance", "shape": [128], "dtype": "float32", "quantization": {"dtype": "uint8", "min": 0.4646075665950775, "scale": 0.007315288454878564, "original_dtype": "float32"}}, {"name": "conv3_block4_2_conv/kernel", "shape": [3, 3, 128, 128], "dtype": "float32", "quantization": {"dtype": "uint8", "min": -0.312117257363656, "scale": 0.0021232466487323535, "original_dtype": "float32"}}, {"name": "conv3_block4_2_conv/bias", "shape": [128], "dtype": "float32", "quantization": {"dtype": "uint8", "min": -0.0004674239080700585, "scale": 3.4118533435770693e-06, "original_dtype": "float32"}}, {"name": "conv3_block4_3_bn/gamma", "shape": [512], "dtype": "float32", "quantization": {"dtype": "uint8", "min": -0.020509827728657164, "scale": 0.006836609242885721, "original_dtype": "float32"}}, {"name": "conv3_block4_3_bn/beta", "shape": [512], "dtype": "float32", "quantization": {"dtype": "uint8", "min": -1.9333673355626126, "scale": 0.012236502123814004, "original_dtype": "float32"}}, {"name": "conv3_block4_3_bn/moving_mean", "shape": [512], "dtype": "float32", "quantization": {"dtype": "uint8", "min": -0.9267024479660333, "scale": 0.007473406838435752, "original_dtype": "float32"}}, {"name": "conv3_block4_3_bn/moving_variance", "shape": [512], "dtype": "float32", "quantization": {"dtype": "uint8", "min": 0.028039930388331413, "scale": 0.0009726037070447324, "original_dtype": "float32"}}, {"name": "conv3_block4_3_conv/kernel", "shape": [1, 1, 128, 512], "dtype": "float32", "quantization": {"dtype": "uint8", "min": -0.307942533493042, "scale": 0.002332897981007894, "original_dtype": "float32"}}, {"name": "conv3_block4_3_conv/bias", "shape": [512], "dtype": "float32", "quantization": {"dtype": "uint8", "min": -0.0003922113153499131, "scale": 3.1629944786283317e-06, "original_dtype": "float32"}}, {"name": "conv4_block1_0_bn/gamma", "shape": [1024], "dtype": "float32", "quantization": {"dtype": "uint8", "min": 0.004553982522338629, "scale": 0.01093238775673158, "original_dtype": "float32"}}, {"name": "conv4_block1_0_bn/beta", "shape": [1024], "dtype": "float32", "quantization": {"dtype": "uint8", "min": -0.9701898004494461, "scale": 0.007462998464995739, "original_dtype": "float32"}}, {"name": "conv4_block1_0_bn/moving_mean", "shape": [1024], "dtype": "float32", "quantization": {"dtype": "uint8", "min": -6.634641815634335, "scale": 0.07058129591100357, "original_dtype": "float32"}}, {"name": "conv4_block1_0_bn/moving_variance", "shape": [1024], "dtype": "float32", "quantization": {"dtype": "uint8", "min": 0.6098822951316833, "scale": 0.015947220605962417, "original_dtype": "float32"}}, {"name": "conv4_block1_0_conv/kernel", "shape": [1, 1, 512, 1024], "dtype": "float32", "quantization": {"dtype": "uint8", "min": -0.3531970884285721, "scale": 0.0029931956646489163, "original_dtype": "float32"}}, {"name": "conv4_block1_0_conv/bias", "shape": [1024], "dtype": "float32", "quantization": {"dtype": "uint8", "min": -9.605926718316315e-05, "scale": 8.653988034519202e-07, "original_dtype": "float32"}}, {"name": "conv4_block1_1_bn/gamma", "shape": [256], "dtype": "float32", "quantization": {"dtype": "uint8", "min": 0.6372818350791931, "scale": 0.0039560605497921215, "original_dtype": "float32"}}, {"name": "conv4_block1_1_bn/beta", "shape": [256], "dtype": "float32", "quantization": {"dtype": "uint8", "min": -1.4268346842597512, "scale": 0.009387070291182574, "original_dtype": "float32"}}, {"name": "conv4_block1_1_bn/moving_mean", "shape": [256], "dtype": "float32", "quantization": {"dtype": "uint8", "min": -1.878366575054094, "scale": 0.017720439387302774, "original_dtype": "float32"}}, {"name": "conv4_block1_1_bn/moving_variance", "shape": [256], "dtype": "float32", "quantization": {"dtype": "uint8", "min": 0.8678432106971741, "scale": 0.01206122356302598, "original_dtype": "float32"}}, {"name": "conv4_block1_1_conv/kernel", "shape": [1, 1, 512, 256], "dtype": "float32", "quantization": {"dtype": "uint8", "min": -0.2656994202557732, "scale": 0.0025065983042997474, "original_dtype": "float32"}}, {"name": "conv4_block1_1_conv/bias", "shape": [256], "dtype": "float32", "quantization": {"dtype": "uint8", "min": -0.00014704569315939558, "scale": 1.2052925668802915e-06, "original_dtype": "float32"}}, {"name": "conv4_block1_2_bn/gamma", "shape": [256], "dtype": "float32", "quantization": {"dtype": "uint8", "min": 0.5876197218894958, "scale": 0.00446086046742458, "original_dtype": "float32"}}, {"name": "conv4_block1_2_bn/beta", "shape": [256], "dtype": "float32", "quantization": {"dtype": "uint8", "min": -1.8568811753216912, "scale": 0.01289500816195619, "original_dtype": "float32"}}, {"name": "conv4_block1_2_bn/moving_mean", "shape": [256], "dtype": "float32", "quantization": {"dtype": "uint8", "min": -3.081671826979693, "scale": 0.02801519842708812, "original_dtype": "float32"}}, {"name": "conv4_block1_2_bn/moving_variance", "shape": [256], "dtype": "float32", "quantization": {"dtype": "uint8", "min": 1.0770115852355957, "scale": 0.015229200849346087, "original_dtype": "float32"}}, {"name": "conv4_block1_2_conv/kernel", "shape": [3, 3, 256, 256], "dtype": "float32", "quantization": {"dtype": "uint8", "min": -0.3173240203483432, "scale": 0.0021440812185698865, "original_dtype": "float32"}}, {"name": "conv4_block1_2_conv/bias", "shape": [256], "dtype": "float32", "quantization": {"dtype": "uint8", "min": -0.00011370776679969447, "scale": 1.1370776679969447e-06, "original_dtype": "float32"}}, {"name": "conv4_block1_3_bn/gamma", "shape": [1024], "dtype": "float32", "quantization": {"dtype": "uint8", "min": 0.05222466588020325, "scale": 0.009357637400720634, "original_dtype": "float32"}}, {"name": "conv4_block1_3_bn/beta", "shape": [1024], "dtype": "float32", "quantization": {"dtype": "uint8", "min": -0.9701898004494461, "scale": 0.007462998464995739, "original_dtype": "float32"}}, {"name": "conv4_block1_3_bn/moving_mean", "shape": [1024], "dtype": "float32", "quantization": {"dtype": "uint8", "min": -1.4171811047722314, "scale": 0.012217078489415787, "original_dtype": "float32"}}, {"name": "conv4_block1_3_bn/moving_variance", "shape": [1024], "dtype": "float32", "quantization": {"dtype": "uint8", "min": 0.03368330001831055, "scale": 0.0014207831784790637, "original_dtype": "float32"}}, {"name": "conv4_block1_3_conv/kernel", "shape": [1, 1, 256, 1024], "dtype": "float32", "quantization": {"dtype": "uint8", "min": -0.30020528844758576, "scale": 0.0026566839685627057, "original_dtype": "float32"}}, {"name": "conv4_block1_3_conv/bias", "shape": [1024], "dtype": "float32", "quantization": {"dtype": "uint8", "min": -0.0002748101867516251, "scale": 2.2900848895968758e-06, "original_dtype": "float32"}}, {"name": "conv4_block2_1_bn/gamma", "shape": [256], "dtype": "float32", "quantization": {"dtype": "uint8", "min": 0.5572980642318726, "scale": 0.004492412828931622, "original_dtype": "float32"}}, {"name": "conv4_block2_1_bn/beta", "shape": [256], "dtype": "float32", "quantization": {"dtype": "uint8", "min": -2.748099401885388, "scale": 0.01493532283633363, "original_dtype": "float32"}}, {"name": "conv4_block2_1_bn/moving_mean", "shape": [256], "dtype": "float32", "quantization": {"dtype": "uint8", "min": -4.942587340111826, "scale": 0.07722792718924729, "original_dtype": "float32"}}, {"name": "conv4_block2_1_bn/moving_variance", "shape": [256], "dtype": "float32", "quantization": {"dtype": "uint8", "min": 1.0271915197372437, "scale": 0.058260385195414224, "original_dtype": "float32"}}, {"name": "conv4_block2_1_conv/kernel", "shape": [1, 1, 1024, 256], "dtype": "float32", "quantization": {"dtype": "uint8", "min": -0.19199074062646604, "scale": 0.001863987773072486, "original_dtype": "float32"}}, {"name": "conv4_block2_1_conv/bias", "shape": [256], "dtype": "float32", "quantization": {"dtype": "uint8", "min": -9.910856988783195e-05, "scale": 8.399031346426437e-07, "original_dtype": "float32"}}, {"name": "conv4_block2_2_bn/gamma", "shape": [256], "dtype": "float32", "quantization": {"dtype": "uint8", "min": 0.5180720686912537, "scale": 0.006974656207888734, "original_dtype": "float32"}}, {"name": "conv4_block2_2_bn/beta", "shape": [256], "dtype": "float32", "quantization": {"dtype": "uint8", "min": -2.557553497015261, "scale": 0.017638299979415593, "original_dtype": "float32"}}, {"name": "conv4_block2_2_bn/moving_mean", "shape": [256], "dtype": "float32", "quantization": {"dtype": "uint8", "min": -3.4631367991952335, "scale": 0.027705094393561867, "original_dtype": "float32"}}, {"name": "conv4_block2_2_bn/moving_variance", "shape": [256], "dtype": "float32", "quantization": {"dtype": "uint8", "min": 0.41463571786880493, "scale": 0.009077496388379265, "original_dtype": "float32"}}, {"name": "conv4_block2_2_conv/kernel", "shape": [3, 3, 256, 256], "dtype": "float32", "quantization": {"dtype": "uint8", "min": -0.4679511738758461, "scale": 0.0028189829751556995, "original_dtype": "float32"}}, {"name": "conv4_block2_2_conv/bias", "shape": [256], "dtype": "float32", "quantization": {"dtype": "uint8", "min": -0.0001802822764433336, "scale": 1.453889326155916e-06, "original_dtype": "float32"}}, {"name": "conv4_block2_3_bn/gamma", "shape": [1024], "dtype": "float32", "quantization": {"dtype": "uint8", "min": 0.03939499333500862, "scale": 0.007660157467220344, "original_dtype": "float32"}}, {"name": "conv4_block2_3_bn/beta", "shape": [1024], "dtype": "float32", "quantization": {"dtype": "uint8", "min": -1.6630018341775035, "scale": 0.010729044091467764, "original_dtype": "float32"}}, {"name": "conv4_block2_3_bn/moving_mean", "shape": [1024], "dtype": "float32", "quantization": {"dtype": "uint8", "min": -0.627328171449549, "scale": 0.005227734762079575, "original_dtype": "float32"}}, {"name": "conv4_block2_3_bn/moving_variance", "shape": [1024], "dtype": "float32", "quantization": {"dtype": "uint8", "min": 0.014045187272131443, "scale": 0.0006405517422393256, "original_dtype": "float32"}}, {"name": "conv4_block2_3_conv/kernel", "shape": [1, 1, 256, 1024], "dtype": "float32", "quantization": {"dtype": "uint8", "min": -0.4321665364153245, "scale": 0.002939908410988602, "original_dtype": "float32"}}, {"name": "conv4_block2_3_conv/bias", "shape": [1024], "dtype": "float32", "quantization": {"dtype": "uint8", "min": -0.00027590605873139754, "scale": 2.5312482452421794e-06, "original_dtype": "float32"}}, {"name": "conv4_block3_1_bn/gamma", "shape": [256], "dtype": "float32", "quantization": {"dtype": "uint8", "min": 0.46312856674194336, "scale": 0.00570073782228956, "original_dtype": "float32"}}, {"name": "conv4_block3_1_bn/beta", "shape": [256], "dtype": "float32", "quantization": {"dtype": "uint8", "min": -2.3703133434641592, "scale": 0.011233712528266158, "original_dtype": "float32"}}, {"name": "conv4_block3_1_bn/moving_mean", "shape": [256], "dtype": "float32", "quantization": {"dtype": "uint8", "min": -5.4194872313854745, "scale": 0.046719717511943745, "original_dtype": "float32"}}, {"name": "conv4_block3_1_bn/moving_variance", "shape": [256], "dtype": "float32", "quantization": {"dtype": "uint8", "min": 0.8969240188598633, "scale": 0.04965478485705806, "original_dtype": "float32"}}, {"name": "conv4_block3_1_conv/kernel", "shape": [1, 1, 1024, 256], "dtype": "float32", "quantization": {"dtype": "uint8", "min": -0.42681358421550075, "scale": 0.003092852059532614, "original_dtype": "float32"}}, {"name": "conv4_block3_1_conv/bias", "shape": [256], "dtype": "float32", "quantization": {"dtype": "uint8", "min": -0.00014044499474431514, "scale": 1.0803461134178089e-06, "original_dtype": "float32"}}, {"name": "conv4_block3_2_bn/gamma", "shape": [256], "dtype": "float32", "quantization": {"dtype": "uint8", "min": 0.5614556670188904, "scale": 0.005343891826330447, "original_dtype": "float32"}}, {"name": "conv4_block3_2_bn/beta", "shape": [256], "dtype": "float32", "quantization": {"dtype": "uint8", "min": -1.6510228928397686, "scale": 0.009223591580110439, "original_dtype": "float32"}}, {"name": "conv4_block3_2_bn/moving_mean", "shape": [256], "dtype": "float32", "quantization": {"dtype": "uint8", "min": -2.403216934204101, "scale": 0.017670712751500745, "original_dtype": "float32"}}, {"name": "conv4_block3_2_bn/moving_variance", "shape": [256], "dtype": "float32", "quantization": {"dtype": "uint8", "min": 0.22669260203838348, "scale": 0.003219746433052362, "original_dtype": "float32"}}, {"name": "conv4_block3_2_conv/kernel", "shape": [3, 3, 256, 256], "dtype": "float32", "quantization": {"dtype": "uint8", "min": -0.1708425947264129, "scale": 0.001817474411983116, "original_dtype": "float32"}}, {"name": "conv4_block3_2_conv/bias", "shape": [256], "dtype": "float32", "quantization": {"dtype": "uint8", "min": -0.00017671317613099282, "scale": 1.6212217993669065e-06, "original_dtype": "float32"}}, {"name": "conv4_block3_3_bn/gamma", "shape": [1024], "dtype": "float32", "quantization": {"dtype": "uint8", "min": 0.04400291293859482, "scale": 0.005591550907667946, "original_dtype": "float32"}}, {"name": "conv4_block3_3_bn/beta", "shape": [1024], "dtype": "float32", "quantization": {"dtype": "uint8", "min": -1.2172870075001436, "scale": 0.006995902341954848, "original_dtype": "float32"}}, {"name": "conv4_block3_3_bn/moving_mean", "shape": [1024], "dtype": "float32", "quantization": {"dtype": "uint8", "min": -0.9645171265976101, "scale": 0.008848780977959726, "original_dtype": "float32"}}, {"name": "conv4_block3_3_bn/moving_variance", "shape": [1024], "dtype": "float32", "quantization": {"dtype": "uint8", "min": 0.013418692164123058, "scale": 0.0027714550969939605, "original_dtype": "float32"}}, {"name": "conv4_block3_3_conv/kernel", "shape": [1, 1, 256, 1024], "dtype": "float32", "quantization": {"dtype": "uint8", "min": -0.29773395493918775, "scale": 0.0022727782819785326, "original_dtype": "float32"}}, {"name": "conv4_block3_3_conv/bias", "shape": [1024], "dtype": "float32", "quantization": {"dtype": "uint8", "min": -0.0002219919517622603, "scale": 1.9303647979326983e-06, "original_dtype": "float32"}}, {"name": "conv4_block4_1_bn/gamma", "shape": [256], "dtype": "float32", "quantization": {"dtype": "uint8", "min": 0.48233920335769653, "scale": 0.003622268929201014, "original_dtype": "float32"}}, {"name": "conv4_block4_1_bn/beta", "shape": [256], "dtype": "float32", "quantization": {"dtype": "uint8", "min": -2.283030221742742, "scale": 0.011029131506003586, "original_dtype": "float32"}}, {"name": "conv4_block4_1_bn/moving_mean", "shape": [256], "dtype": "float32", "quantization": {"dtype": "uint8", "min": -8.596430587768554, "scale": 0.08427873125263288, "original_dtype": "float32"}}, {"name": "conv4_block4_1_bn/moving_variance", "shape": [256], "dtype": "float32", "quantization": {"dtype": "uint8", "min": 0.7532339096069336, "scale": 0.27641922071868297, "original_dtype": "float32"}}, {"name": "conv4_block4_1_conv/kernel", "shape": [1, 1, 1024, 256], "dtype": "float32", "quantization": {"dtype": "uint8", "min": -0.18629848477887173, "scale": 0.002166261450917113, "original_dtype": "float32"}}, {"name": "conv4_block4_1_conv/bias", "shape": [256], "dtype": "float32", "quantization": {"dtype": "uint8", "min": -0.00010718518212396543, "scale": 1.2043278890333194e-06, "original_dtype": "float32"}}, {"name": "conv4_block4_2_bn/gamma", "shape": [256], "dtype": "float32", "quantization": {"dtype": "uint8", "min": 0.5847626328468323, "scale": 0.005815584285586488, "original_dtype": "float32"}}, {"name": "conv4_block4_2_bn/beta", "shape": [256], "dtype": "float32", "quantization": {"dtype": "uint8", "min": -1.6130985348832374, "scale": 0.0092177059136185, "original_dtype": "float32"}}, {"name": "conv4_block4_2_bn/moving_mean", "shape": [256], "dtype": "float32", "quantization": {"dtype": "uint8", "min": -2.7305419094422287, "scale": 0.01832578462712905, "original_dtype": "float32"}}, {"name": "conv4_block4_2_bn/moving_variance", "shape": [256], "dtype": "float32", "quantization": {"dtype": "uint8", "min": 0.18899236619472504, "scale": 0.00875313007364086, "original_dtype": "float32"}}, {"name": "conv4_block4_2_conv/kernel", "shape": [3, 3, 256, 256], "dtype": "float32", "quantization": {"dtype": "uint8", "min": -0.18653841217358907, "scale": 0.0017597963412602743, "original_dtype": "float32"}}, {"name": "conv4_block4_2_conv/bias", "shape": [256], "dtype": "float32", "quantization": {"dtype": "uint8", "min": -0.0002085371338419945, "scale": 1.878712917495446e-06, "original_dtype": "float32"}}, {"name": "conv4_block4_3_bn/gamma", "shape": [1024], "dtype": "float32", "quantization": {"dtype": "uint8", "min": -0.06002232686561697, "scale": 0.006669147429512997, "original_dtype": "float32"}}, {"name": "conv4_block4_3_bn/beta", "shape": [1024], "dtype": "float32", "quantization": {"dtype": "uint8", "min": -1.4482741117477418, "scale": 0.007099382900724224, "original_dtype": "float32"}}, {"name": "conv4_block4_3_bn/moving_mean", "shape": [1024], "dtype": "float32", "quantization": {"dtype": "uint8", "min": -0.6033257540534525, "scale": 0.005386837089762968, "original_dtype": "float32"}}, {"name": "conv4_block4_3_bn/moving_variance", "shape": [1024], "dtype": "float32", "quantization": {"dtype": "uint8", "min": 0.009126489982008934, "scale": 0.007580736783497474, "original_dtype": "float32"}}, {"name": "conv4_block4_3_conv/kernel", "shape": [1, 1, 256, 1024], "dtype": "float32", "quantization": {"dtype": "uint8", "min": -0.23385419845581054, "scale": 0.0019168376922607422, "original_dtype": "float32"}}, {"name": "conv4_block4_3_conv/bias", "shape": [1024], "dtype": "float32", "quantization": {"dtype": "uint8", "min": -0.00024665920063853263, "scale": 2.83516322573026e-06, "original_dtype": "float32"}}, {"name": "conv4_block5_1_bn/gamma", "shape": [256], "dtype": "float32", "quantization": {"dtype": "uint8", "min": 0.49525776505470276, "scale": 0.003774923787397497, "original_dtype": "float32"}}, {"name": "conv4_block5_1_bn/beta", "shape": [256], "dtype": "float32", "quantization": {"dtype": "uint8", "min": -2.5144382610040554, "scale": 0.01226555249270271, "original_dtype": "float32"}}, {"name": "conv4_block5_1_bn/moving_mean", "shape": [256], "dtype": "float32", "quantization": {"dtype": "uint8", "min": -6.067831993103027, "scale": 0.05948854895199046, "original_dtype": "float32"}}, {"name": "conv4_block5_1_bn/moving_variance", "shape": [256], "dtype": "float32", "quantization": {"dtype": "uint8", "min": 0.7761180996894836, "scale": 0.16754035645840215, "original_dtype": "float32"}}, {"name": "conv4_block5_1_conv/kernel", "shape": [1, 1, 1024, 256], "dtype": "float32", "quantization": {"dtype": "uint8", "min": -0.23052181654116685, "scale": 0.002195445871820637, "original_dtype": "float32"}}, {"name": "conv4_block5_1_conv/bias", "shape": [256], "dtype": "float32", "quantization": {"dtype": "uint8", "min": -0.00018409072928240192, "scale": 1.187682124402593e-06, "original_dtype": "float32"}}, {"name": "conv4_block5_2_bn/gamma", "shape": [256], "dtype": "float32", "quantization": {"dtype": "uint8", "min": 0.7084531188011169, "scale": 0.0049371670274173515, "original_dtype": "float32"}}, {"name": "conv4_block5_2_bn/beta", "shape": [256], "dtype": "float32", "quantization": {"dtype": "uint8", "min": -1.6070259042814665, "scale": 0.008878596156251197, "original_dtype": "float32"}}, {"name": "conv4_block5_2_bn/moving_mean", "shape": [256], "dtype": "float32", "quantization": {"dtype": "uint8", "min": -3.166334840363147, "scale": 0.017208341523712756, "original_dtype": "float32"}}, {"name": "conv4_block5_2_bn/moving_variance", "shape": [256], "dtype": "float32", "quantization": {"dtype": "uint8", "min": 0.24763169884681702, "scale": 0.0304262473302729, "original_dtype": "float32"}}, {"name": "conv4_block5_2_conv/kernel", "shape": [3, 3, 256, 256], "dtype": "float32", "quantization": {"dtype": "uint8", "min": -0.21286165223402137, "scale": 0.0018672074757370295, "original_dtype": "float32"}}, {"name": "conv4_block5_2_conv/bias", "shape": [256], "dtype": "float32", "quantization": {"dtype": "uint8", "min": -0.0002709487394895405, "scale": 1.7709067940492841e-06, "original_dtype": "float32"}}, {"name": "conv4_block5_3_bn/gamma", "shape": [1024], "dtype": "float32", "quantization": {"dtype": "uint8", "min": -0.06533896747757408, "scale": 0.006533896747757407, "original_dtype": "float32"}}, {"name": "conv4_block5_3_bn/beta", "shape": [1024], "dtype": "float32", "quantization": {"dtype": "uint8", "min": -1.1000879661709655, "scale": 0.007237420830072141, "original_dtype": "float32"}}, {"name": "conv4_block5_3_bn/moving_mean", "shape": [1024], "dtype": "float32", "quantization": {"dtype": "uint8", "min": -1.4457085609436036, "scale": 0.010952337582906087, "original_dtype": "float32"}}, {"name": "conv4_block5_3_bn/moving_variance", "shape": [1024], "dtype": "float32", "quantization": {"dtype": "uint8", "min": 0.00890512578189373, "scale": 0.016137174714137528, "original_dtype": "float32"}}, {"name": "conv4_block5_3_conv/kernel", "shape": [1, 1, 256, 1024], "dtype": "float32", "quantization": {"dtype": "uint8", "min": -0.2309090915848227, "scale": 0.0020991735598620245, "original_dtype": "float32"}}, {"name": "conv4_block5_3_conv/bias", "shape": [1024], "dtype": "float32", "quantization": {"dtype": "uint8", "min": -0.00020854866546441745, "scale": 1.6166563214295926e-06, "original_dtype": "float32"}}, {"name": "conv4_block6_1_bn/gamma", "shape": [256], "dtype": "float32", "quantization": {"dtype": "uint8", "min": 0.45035436749458313, "scale": 0.004253647257299984, "original_dtype": "float32"}}, {"name": "conv4_block6_1_bn/beta", "shape": [256], "dtype": "float32", "quantization": {"dtype": "uint8", "min": -1.9605591418696386, "scale": 0.011139540578804764, "original_dtype": "float32"}}, {"name": "conv4_block6_1_bn/moving_mean", "shape": [256], "dtype": "float32", "quantization": {"dtype": "uint8", "min": -4.62811949486826, "scale": 0.07231436710731656, "original_dtype": "float32"}}, {"name": "conv4_block6_1_bn/moving_variance", "shape": [256], "dtype": "float32", "quantization": {"dtype": "uint8", "min": 1.2715239524841309, "scale": 0.39499137167837106, "original_dtype": "float32"}}, {"name": "conv4_block6_1_conv/kernel", "shape": [1, 1, 1024, 256], "dtype": "float32", "quantization": {"dtype": "uint8", "min": -0.18991416879728729, "scale": 0.0022083042883405497, "original_dtype": "float32"}}, {"name": "conv4_block6_1_conv/bias", "shape": [256], "dtype": "float32", "quantization": {"dtype": "uint8", "min": -8.650744178642829e-05, "scale": 7.149375354250272e-07, "original_dtype": "float32"}}, {"name": "conv4_block6_2_bn/gamma", "shape": [256], "dtype": "float32", "quantization": {"dtype": "uint8", "min": 0.6605444550514221, "scale": 0.00895770741444008, "original_dtype": "float32"}}, {"name": "conv4_block6_2_bn/beta", "shape": [256], "dtype": "float32", "quantization": {"dtype": "uint8", "min": -1.0968907300163717, "scale": 0.0074114238514619716, "original_dtype": "float32"}}, {"name": "conv4_block6_2_bn/moving_mean", "shape": [256], "dtype": "float32", "quantization": {"dtype": "uint8", "min": -6.135410932933583, "scale": 0.030223699177012724, "original_dtype": "float32"}}, {"name": "conv4_block6_2_bn/moving_variance", "shape": [256], "dtype": "float32", "quantization": {"dtype": "uint8", "min": 0.6004417538642883, "scale": 0.07165852411120546, "original_dtype": "float32"}}, {"name": "conv4_block6_2_conv/kernel", "shape": [3, 3, 256, 256], "dtype": "float32", "quantization": {"dtype": "uint8", "min": -0.3057527481340894, "scale": 0.002465747968823302, "original_dtype": "float32"}}, {"name": "conv4_block6_2_conv/bias", "shape": [256], "dtype": "float32", "quantization": {"dtype": "uint8", "min": -0.00013392168535467458, "scale": 1.2400156051358757e-06, "original_dtype": "float32"}}, {"name": "conv4_block6_3_bn/gamma", "shape": [1024], "dtype": "float32", "quantization": {"dtype": "uint8", "min": 0.0005204430781304836, "scale": 0.007999108916185067, "original_dtype": "float32"}}, {"name": "conv4_block6_3_bn/beta", "shape": [1024], "dtype": "float32", "quantization": {"dtype": "uint8", "min": -1.6153209013097425, "scale": 0.011217506259095435, "original_dtype": "float32"}}, {"name": "conv4_block6_3_bn/moving_mean", "shape": [1024], "dtype": "float32", "quantization": {"dtype": "uint8", "min": -1.612293554287331, "scale": 0.015068164058760101, "original_dtype": "float32"}}, {"name": "conv4_block6_3_bn/moving_variance", "shape": [1024], "dtype": "float32", "quantization": {"dtype": "uint8", "min": 0.039929620921611786, "scale": 0.01336159709037519, "original_dtype": "float32"}}, {"name": "conv4_block6_3_conv/kernel", "shape": [1, 1, 256, 1024], "dtype": "float32", "quantization": {"dtype": "uint8", "min": -0.2213733187493156, "scale": 0.002108317321422053, "original_dtype": "float32"}}, {"name": "conv4_block6_3_conv/bias", "shape": [1024], "dtype": "float32", "quantization": {"dtype": "uint8", "min": -0.0001033568032332422, "scale": 8.202920891527159e-07, "original_dtype": "float32"}}, {"name": "conv5_block1_0_bn/gamma", "shape": [2048], "dtype": "float32", "quantization": {"dtype": "uint8", "min": 0.1834844946861267, "scale": 0.017215151179070565, "original_dtype": "float32"}}, {"name": "conv5_block1_0_bn/beta", "shape": [2048], "dtype": "float32", "quantization": {"dtype": "uint8", "min": -1.8032574691024479, "scale": 0.011200356950946882, "original_dtype": "float32"}}, {"name": "conv5_block1_0_bn/moving_mean", "shape": [2048], "dtype": "float32", "quantization": {"dtype": "uint8", "min": -28.929009643255494, "scale": 0.3045158909816368, "original_dtype": "float32"}}, {"name": "conv5_block1_0_bn/moving_variance", "shape": [2048], "dtype": "float32", "quantization": {"dtype": "uint8", "min": 2.229050636291504, "scale": 3.7539053486842735, "original_dtype": "float32"}}, {"name": "conv5_block1_0_conv/kernel", "shape": [1, 1, 1024, 2048], "dtype": "float32", "quantization": {"dtype": "uint8", "min": -0.6549060520003823, "scale": 0.004366040346669216, "original_dtype": "float32"}}, {"name": "conv5_block1_0_conv/bias", "shape": [2048], "dtype": "float32", "quantization": {"dtype": "uint8", "min": -4.504476479875545e-05, "scale": 3.3121150587320184e-07, "original_dtype": "float32"}}, {"name": "conv5_block1_1_bn/gamma", "shape": [512], "dtype": "float32", "quantization": {"dtype": "uint8", "min": 0.584930956363678, "scale": 0.003890516477472642, "original_dtype": "float32"}}, {"name": "conv5_block1_1_bn/beta", "shape": [512], "dtype": "float32", "quantization": {"dtype": "uint8", "min": -1.7359222124604619, "scale": 0.008426806856604184, "original_dtype": "float32"}}, {"name": "conv5_block1_1_bn/moving_mean", "shape": [512], "dtype": "float32", "quantization": {"dtype": "uint8", "min": -8.594904506907744, "scale": 0.13222930010627298, "original_dtype": "float32"}}, {"name": "conv5_block1_1_bn/moving_variance", "shape": [512], "dtype": "float32", "quantization": {"dtype": "uint8", "min": 2.6516518592834473, "scale": 1.2495313064724791, "original_dtype": "float32"}}, {"name": "conv5_block1_1_conv/kernel", "shape": [1, 1, 1024, 512], "dtype": "float32", "quantization": {"dtype": "uint8", "min": -0.2298113703727722, "scale": 0.002253052650713453, "original_dtype": "float32"}}, {"name": "conv5_block1_1_conv/bias", "shape": [512], "dtype": "float32", "quantization": {"dtype": "uint8", "min": -5.0992536125704645e-05, "scale": 3.749451185713577e-07, "original_dtype": "float32"}}, {"name": "conv5_block1_2_bn/gamma", "shape": [512], "dtype": "float32", "quantization": {"dtype": "uint8", "min": 0.5932837128639221, "scale": 0.004225727857327929, "original_dtype": "float32"}}, {"name": "conv5_block1_2_bn/beta", "shape": [512], "dtype": "float32", "quantization": {"dtype": "uint8", "min": -1.859768248305601, "scale": 0.01087583770938948, "original_dtype": "float32"}}, {"name": "conv5_block1_2_bn/moving_mean", "shape": [512], "dtype": "float32", "quantization": {"dtype": "uint8", "min": -8.524674808277803, "scale": 0.08524674808277803, "original_dtype": "float32"}}, {"name": "conv5_block1_2_bn/moving_variance", "shape": [512], "dtype": "float32", "quantization": {"dtype": "uint8", "min": 0.9060965776443481, "scale": 0.4550197858436435, "original_dtype": "float32"}}, {"name": "conv5_block1_2_conv/kernel", "shape": [3, 3, 512, 512], "dtype": "float32", "quantization": {"dtype": "uint8", "min": -0.20989414845027177, "scale": 0.0018251665082632327, "original_dtype": "float32"}}, {"name": "conv5_block1_2_conv/bias", "shape": [512], "dtype": "float32", "quantization": {"dtype": "uint8", "min": -8.723490036037915e-05, "scale": 7.520250031067168e-07, "original_dtype": "float32"}}, {"name": "conv5_block1_3_bn/gamma", "shape": [2048], "dtype": "float32", "quantization": {"dtype": "uint8", "min": 0.8450906276702881, "scale": 0.010619114894492953, "original_dtype": "float32"}}, {"name": "conv5_block1_3_bn/beta", "shape": [2048], "dtype": "float32", "quantization": {"dtype": "uint8", "min": -1.8032574691024479, "scale": 0.011200356950946882, "original_dtype": "float32"}}, {"name": "conv5_block1_3_bn/moving_mean", "shape": [2048], "dtype": "float32", "quantization": {"dtype": "uint8", "min": -1.7807638804117838, "scale": 0.026187704123702703, "original_dtype": "float32"}}, {"name": "conv5_block1_3_bn/moving_variance", "shape": [2048], "dtype": "float32", "quantization": {"dtype": "uint8", "min": 0.031653277575969696, "scale": 0.07363213607493568, "original_dtype": "float32"}}, {"name": "conv5_block1_3_conv/kernel", "shape": [1, 1, 512, 2048], "dtype": "float32", "quantization": {"dtype": "uint8", "min": -0.30920066366008686, "scale": 0.002973083304423912, "original_dtype": "float32"}}, {"name": "conv5_block1_3_conv/bias", "shape": [2048], "dtype": "float32", "quantization": {"dtype": "uint8", "min": -9.786729519963082e-05, "scale": 8.660822584038126e-07, "original_dtype": "float32"}}, {"name": "conv5_block2_1_bn/gamma", "shape": [512], "dtype": "float32", "quantization": {"dtype": "uint8", "min": 0.49515464901924133, "scale": 0.003858000507541731, "original_dtype": "float32"}}, {"name": "conv5_block2_1_bn/beta", "shape": [512], "dtype": "float32", "quantization": {"dtype": "uint8", "min": -1.3863735591664033, "scale": 0.0076174371382769415, "original_dtype": "float32"}}, {"name": "conv5_block2_1_bn/moving_mean", "shape": [512], "dtype": "float32", "quantization": {"dtype": "uint8", "min": -19.931599112117993, "scale": 0.22146221235686658, "original_dtype": "float32"}}, {"name": "conv5_block2_1_bn/moving_variance", "shape": [512], "dtype": "float32", "quantization": {"dtype": "uint8", "min": 6.973835468292236, "scale": 18.219744916055717, "original_dtype": "float32"}}, {"name": "conv5_block2_1_conv/kernel", "shape": [1, 1, 2048, 512], "dtype": "float32", "quantization": {"dtype": "uint8", "min": -0.39236752951846404, "scale": 0.003736833614461562, "original_dtype": "float32"}}, {"name": "conv5_block2_1_conv/bias", "shape": [512], "dtype": "float32", "quantization": {"dtype": "uint8", "min": -2.3706701661770542e-05, "scale": 1.7431398280713634e-07, "original_dtype": "float32"}}, {"name": "conv5_block2_2_bn/gamma", "shape": [512], "dtype": "float32", "quantization": {"dtype": "uint8", "min": 0.5077431797981262, "scale": 0.003941585737116196, "original_dtype": "float32"}}, {"name": "conv5_block2_2_bn/beta", "shape": [512], "dtype": "float32", "quantization": {"dtype": "uint8", "min": -1.8756326918508492, "scale": 0.011298992119583429, "original_dtype": "float32"}}, {"name": "conv5_block2_2_bn/moving_mean", "shape": [512], "dtype": "float32", "quantization": {"dtype": "uint8", "min": -3.7289644054338043, "scale": 0.03585542697532504, "original_dtype": "float32"}}, {"name": "conv5_block2_2_bn/moving_variance", "shape": [512], "dtype": "float32", "quantization": {"dtype": "uint8", "min": 0.5069777965545654, "scale": 0.6751784801483154, "original_dtype": "float32"}}, {"name": "conv5_block2_2_conv/kernel", "shape": [3, 3, 512, 512], "dtype": "float32", "quantization": {"dtype": "uint8", "min": -0.31362242324679507, "scale": 0.002240160166048536, "original_dtype": "float32"}}, {"name": "conv5_block2_2_conv/bias", "shape": [512], "dtype": "float32", "quantization": {"dtype": "uint8", "min": -0.00010672852524793615, "scale": 9.044790275248826e-07, "original_dtype": "float32"}}, {"name": "conv5_block2_3_bn/gamma", "shape": [2048], "dtype": "float32", "quantization": {"dtype": "uint8", "min": 0.5903547406196594, "scale": 0.008957233382206338, "original_dtype": "float32"}}, {"name": "conv5_block2_3_bn/beta", "shape": [2048], "dtype": "float32", "quantization": {"dtype": "uint8", "min": -2.593321821268867, "scale": 0.012061961959390079, "original_dtype": "float32"}}, {"name": "conv5_block2_3_bn/moving_mean", "shape": [2048], "dtype": "float32", "quantization": {"dtype": "uint8", "min": -1.0401403090533088, "scale": 0.008063103170955882, "original_dtype": "float32"}}, {"name": "conv5_block2_3_bn/moving_variance", "shape": [2048], "dtype": "float32", "quantization": {"dtype": "uint8", "min": 0.007895723916590214, "scale": 0.004698940289809423, "original_dtype": "float32"}}, {"name": "conv5_block2_3_conv/kernel", "shape": [1, 1, 512, 2048], "dtype": "float32", "quantization": {"dtype": "uint8", "min": -0.24930742137572345, "scale": 0.0020268896046806784, "original_dtype": "float32"}}, {"name": "conv5_block2_3_conv/bias", "shape": [2048], "dtype": "float32", "quantization": {"dtype": "uint8", "min": -0.0001807665706591626, "scale": 1.1662359397365328e-06, "original_dtype": "float32"}}, {"name": "conv5_block3_1_bn/gamma", "shape": [512], "dtype": "float32", "quantization": {"dtype": "uint8", "min": 0.49095073342323303, "scale": 0.003317820207745421, "original_dtype": "float32"}}, {"name": "conv5_block3_1_bn/beta", "shape": [512], "dtype": "float32", "quantization": {"dtype": "uint8", "min": -1.749272721421485, "scale": 0.010170190240822587, "original_dtype": "float32"}}, {"name": "conv5_block3_1_bn/moving_mean", "shape": [512], "dtype": "float32", "quantization": {"dtype": "uint8", "min": -16.27227300756118, "scale": 0.25829004773906633, "original_dtype": "float32"}}, {"name": "conv5_block3_1_bn/moving_variance", "shape": [512], "dtype": "float32", "quantization": {"dtype": "uint8", "min": 4.690903186798096, "scale": 26.669261317159616, "original_dtype": "float32"}}, {"name": "conv5_block3_1_conv/kernel", "shape": [1, 1, 2048, 512], "dtype": "float32", "quantization": {"dtype": "uint8", "min": -0.24923911375157973, "scale": 0.0028322626562679513, "original_dtype": "float32"}}, {"name": "conv5_block3_1_conv/bias", "shape": [512], "dtype": "float32", "quantization": {"dtype": "uint8", "min": -3.194134778288357e-05, "scale": 1.9963342364302233e-07, "original_dtype": "float32"}}, {"name": "conv5_block3_2_bn/gamma", "shape": [512], "dtype": "float32", "quantization": {"dtype": "uint8", "min": 0.6307002305984497, "scale": 0.0024877267725327435, "original_dtype": "float32"}}, {"name": "conv5_block3_2_bn/beta", "shape": [512], "dtype": "float32", "quantization": {"dtype": "uint8", "min": -1.8836782146902646, "scale": 0.012231676718767952, "original_dtype": "float32"}}, {"name": "conv5_block3_2_bn/moving_mean", "shape": [512], "dtype": "float32", "quantization": {"dtype": "uint8", "min": -2.769043825186935, "scale": 0.02387106745850806, "original_dtype": "float32"}}, {"name": "conv5_block3_2_bn/moving_variance", "shape": [512], "dtype": "float32", "quantization": {"dtype": "uint8", "min": 0.30962449312210083, "scale": 0.9686105435969783, "original_dtype": "float32"}}, {"name": "conv5_block3_2_conv/kernel", "shape": [3, 3, 512, 512], "dtype": "float32", "quantization": {"dtype": "uint8", "min": -0.2093660793468064, "scale": 0.001528219557275959, "original_dtype": "float32"}}, {"name": "conv5_block3_2_conv/bias", "shape": [512], "dtype": "float32", "quantization": {"dtype": "uint8", "min": -0.00012235612067503526, "scale": 1.1123283697730478e-06, "original_dtype": "float32"}}, {"name": "conv5_block3_3_bn/gamma", "shape": [2048], "dtype": "float32", "quantization": {"dtype": "uint8", "min": 0.44346410036087036, "scale": 0.010233652591705323, "original_dtype": "float32"}}, {"name": "conv5_block3_3_bn/beta", "shape": [2048], "dtype": "float32", "quantization": {"dtype": "uint8", "min": -3.8672542572021484, "scale": 0.014266919271618711, "original_dtype": "float32"}}, {"name": "conv5_block3_3_bn/moving_mean", "shape": [2048], "dtype": "float32", "quantization": {"dtype": "uint8", "min": -0.7373178220262715, "scale": 0.005760295484580246, "original_dtype": "float32"}}, {"name": "conv5_block3_3_bn/moving_variance", "shape": [2048], "dtype": "float32", "quantization": {"dtype": "uint8", "min": 0.024265985935926437, "scale": 0.0025997576322041305, "original_dtype": "float32"}}, {"name": "conv5_block3_3_conv/kernel", "shape": [1, 1, 512, 2048], "dtype": "float32", "quantization": {"dtype": "uint8", "min": -0.12483005313312306, "scale": 0.0016003852965785009, "original_dtype": "float32"}}, {"name": "conv5_block3_3_conv/bias", "shape": [2048], "dtype": "float32", "quantization": {"dtype": "uint8", "min": -0.00011369597546838443, "scale": 9.095678037470755e-07, "original_dtype": "float32"}}, {"name": "dense/kernel", "shape": [18432, 512], "dtype": "float32", "quantization": {"dtype": "uint8", "min": -0.2380533367395401, "scale": 0.0018453747034072876, "original_dtype": "float32"}}, {"name": "dense/bias", "shape": [512], "dtype": "float32", "quantization": {"dtype": "uint8", "min": -0.017918430823905797, "scale": 0.0005599509632470562, "original_dtype": "float32"}}, {"name": "dense_1/kernel", "shape": [512, 512], "dtype": "float32", "quantization": {"dtype": "uint8", "min": -0.1789630740296607, "scale": 0.0013981490158567241, "original_dtype": "float32"}}, {"name": "dense_1/bias", "shape": [512], "dtype": "float32", "quantization": {"dtype": "uint8", "min": -0.09805019582603491, "scale": 0.0009519436487964555, "original_dtype": "float32"}}, {"name": "predictions/kernel", "shape": [512, 7], "dtype": "float32", "quantization": {"dtype": "uint8", "min": -0.12821033518103991, "scale": 0.0009787048487102283, "original_dtype": "float32"}}, {"name": "predictions/bias", "shape": [7], "dtype": "float32", "quantization": {"dtype": "uint8", "min": -0.03418986134085001, "scale": 0.0002357921471782759, "original_dtype": "float32"}}]}]}